checkpoint_actor1.pth (torch_old, 142817 bytes, 6 tensors)

fc1.weight f4 [200, 24]
000000 c7 13 de bc 0f 2e 23 3e d8 74 5e bd 5e 85 92 3c
       -0.02710904 0.15935539 -0.05431065 0.01788586
000010 bc 0b 5c bd 9b e8 ae bd eb fe 89 3d 7e 01 46 3c
       -0.05372213 -0.0854046 0.06738075 0.012085317
000020 6f 1d 9f 3b c0 42 42 3e 90 c1 16 3a 91 cd cc 3d
       0.0048558037 0.18970776 0.0005750889 0.10000146
000030 81 0c b2 bc 41 ea 82 be 0a 6c f4 3b 79 be a0 3d
       -0.021734478 -0.25569347 0.0074591683 0.0784883
000040 f2 02 74 bd 9d cb 54 3e 00 6a 62 3c 1d 80 82 bc
       -0.05957312 0.20780797 0.013819218 -0.01593023
000050 f2 5a 35 3c ef 87 8c be 1b 66 d4 3d 82 86 b7 bd
       0.011069046 -0.2744746 0.103710376 -0.08961202
000060 c2 42 19 bd 11 56 08 bd 53 4c 20 3d 9b 59 13 3d
       -0.03741718 -0.033285204 0.03913529 0.035974126
000070 24 1f ed bd ea ca 19 3e 31 f3 a8 3b 94 fe a7 bc
       -0.11578205 0.15018812 0.005155944 -0.020507134
000080 06 e4 4c bc 02 ad 1b bd 9e d3 41 3d a2 a0 1c bd
       -0.012505537 -0.03800679 0.047320955 -0.03823913
000090 d7 5e 98 bd d6 74 c6 3d 19 d1 d5 3b be 31 00 be
       -0.07439964 0.096902534 0.0065251705 -0.12518975
0000a0 7d b5 ad bc a9 a0 56 bc 51 e9 c4 3c 1b 1f 25 be
       -0.021204704 -0.013099828 0.024037035 -0.16125147
0000b0 63 25 4f be a1 7c 9a bd 23 fd 97 3d ed 8c 08 be
       -0.20229106 -0.07543302 0.07421329 -0.13335009
0000c0 8f 1b 22 3b 66 d4 fe bc 8e 9b ea 3d cf 05 eb 3d
       0.0024735664 -0.031107139 0.11455451 0.11475717
0000d0 d3 de a3 3d 85 e2 d2 3c ea fc a0 3d a5 e0 a6 3d
       0.08001485 0.025742779 0.078607395 0.08148316
0000e0 ea 58 57 bb 5f 05 6c 3d 23 f9 64 3d 0a c6 c5 3d
       -0.0032859393 0.05762231 0.055901658 0.096569136
0000f0 89 3c d8 3d 2a ef 82 bd a0 12 fb 3b b0 9a cc 3b
       0.10558421 -0.06393273 0.0076621324 0.006244026
000100 8c 2e d0 bd 50 e1 85 3d a9 48 d5 bc 05 81 b6 3c
       -0.10165128 0.065371156 -0.026035624 0.022278318
000110 b1 6b 08 3e e9 51 6e 3c 47 e7 93 3d 7f 68 68 3d
       0.13322331 0.014545896 0.07221847 0.05674028
000120 ce 59 36 bb 56 88 a9 3d e1 fd 98 3d db 89 15 bd
       -0.0027824524 0.08277957 0.074702986 -0.036508422
000130 03 21 5e 3c ee 85 29 3d 83 7f c4 3d 57 ce 81 bc
       0.013557675 0.04138749 0.095946334 -0.01584546
000140 71 1a c6 bd f1 ab 3e bd 10 a0 98 3d 20 6e b6 bd
       -0.09673012 -0.046550695 0.074524045 -0.089077234
000150 80 eb f5 3c 79 89 31 3d 22 eb f6 3d 57 66 0b be
       0.030019522 0.043343995 0.12056567 -0.13613258
000160 18 8b 9e bd 62 c5 19 bc 68 89 b4 3c 92 16 d7 bd
       -0.07741374 -0.009385439 0.022038177 -0.10502352
000170 2e ae 4b 3e d4 21 5c 3d 79 ff 25 3d b4 0d 75 bd
       0.19890663 0.0537432 0.04052684 -0.05982752
000180 a8 e4 97 bc 02 5c 00 be a6 e4 87 3c 5e 98 80 bc
       -0.018541649 -0.12535098 0.01658852 -0.015697654
000190 21 06 5a 3e f3 b2 24 3d 43 0f c4 3b 28 11 d0 bc
       0.212914 0.04020972 0.0059832647 -0.025398806
0001a0 69 5e f2 bd ba 3a eb bd a7 16 cc bb d8 b2 a7 bd
       -0.118344136 -0.114858106 -0.0062282863 -0.081884086
0001b0 57 e4 87 3e 70 dd 17 3e 29 d3 59 3c dd 62 a4 bc
       0.26541397 0.14830565 0.013294973 -0.020066673
0001c0 53 75 15 be 49 e7 35 be 68 31 23 3b cc 0c f7 bd
       -0.14595537 -0.1776401 0.0024901275 -0.12062988
0001d0 b8 cc 7a 3e 59 57 af 3e 48 e1 b4 3c c7 db 8b bd
       0.24492157 0.34246328 0.022080079 -0.068290286
0001e0 f0 b0 bf bc 4c c7 07 bd c3 de 2b bd 09 dc 99 3c
       -0.0233998 -0.03314905 -0.04196049 0.018781679
0001f0 86 d9 2c 3d 12 34 b2 3d 2a 6d 95 bd dc e7 fc 3b
       0.042199634 0.08701338 -0.07296212 0.0077180695
000200 26 f4 9b bc f6 ba 44 3d 23 5e a4 3c 6b 13 e3 3c
       -0.019037317 0.048029862 0.02006442 0.02771922
000210 22 f9 d3 3d ba ae 7e 3d 9b 55 76 bc 39 ae 7f bd
       0.10350253 0.06217835 -0.015035058 -0.06242201
000220 8e 15 b2 bc 98 65 b3 3d 43 65 91 bd 64 c4 0b bd
       -0.021738794 0.08759612 -0.07099392 -0.03412284
000230 16 e1 1c 3e 54 58 89 3d b3 04 d3 bc b4 65 2e 3d
       0.15320238 0.067063004 -0.025759077 0.04257746
000240 b4 b0 2e 3c 90 9e 4c be 49 43 93 bb 4d 4e 3b 3c
       0.0106622465 -0.19982362 -0.004494105 0.011432243
000250 ec 83 9f bd fb b6 fd 3d ce dd 6a 3c c8 56 bc bc
       -0.07788834 0.123884164 0.014335109 -0.0229906
000260 98 0d 7f 3d 7e 7b 12 be c2 7c 37 3c 31 60 4f bd
       0.062268823 -0.14304921 0.011199178 -0.050628845
000270 d1 18 af 3c 6e 3b 17 3e a6 04 6e bc ab aa b9 bd
       0.021374138 0.14768764 -0.014527475 -0.090657555
000280 db 1c 5d bd ea cd 07 be 96 b0 a5 bd 69 b4 23 bd
       -0.053982597 -0.13262144 -0.08090322 -0.039966974
000290 cc b2 c2 3d db e1 99 3e f9 04 ef bc 0b 53 95 bd
       0.09506759 0.30055127 -0.029177176 -0.0729123
0002a0 c3 6f 3e bc 84 28 0b be 1b f9 0e bc 09 dc 77 3b
       -0.011623326 -0.13589674 -0.008726384 0.003782036
0002b0 ef 45 1f 3d 24 45 4e bd 11 ae c5 bc 09 be 52 bb
       0.038885053 -0.050358906 -0.024130853 -0.0032156727
0002c0 7e 09 8a 3d 83 3a 53 bd 2f 5d 0a 3a 7a d8 26 3d
       0.06740092 -0.051569473 0.00052781677 0.040733792
0002d0 cf ee 72 3d 66 ef 92 3d 09 d2 82 bc 3c a1 31 3d
       0.059309777 0.07174568 -0.015969293 0.043366656
0002e0 e5 67 48 3d b0 39 42 be f6 bc 8c 3d ac e1 08 be
       0.048927207 -0.18967319 0.06871979 -0.13367337
0002f0 81 d9 d5 bd 1c 1b 54 3e 49 07 6f 3d 2a 41 9d bd
       -0.10441876 0.20713466 0.058356557 -0.07678445
000300 9a 2e 8b ba eb c5 91 3e 7a 4b 9a 3d 22 82 1d bc
       -0.0010618747 0.28471312 0.07533927 -0.009613546
000310 81 2b a8 3d d7 28 32 be 76 33 f5 3c 89 d1 c2 bb
       0.08211423 -0.17398392 0.029931765 -0.0059453887
000320 32 d5 8a bd 71 93 7a 3e 73 89 89 3b 26 f7 01 3e
       -0.06778945 0.24470307 0.0041972934 0.12691936
000330 6c 56 9e bd 70 c7 98 bd ad 89 2f 3d 80 eb 04 3e
       -0.077313274 -0.07459915 0.042855907 0.12980461
000340 e0 91 fc bd 68 1d 52 3e ae 9f be bc d0 68 ab bc
       -0.12332511 0.2051903 -0.0232695 -0.020924002
000350 45 e4 36 be 42 0d 23 bd 00 16 43 bd 8e ec 09 bd
       -0.17860515 -0.039807566 -0.047628403 -0.03367286
000360 c9 42 90 bd 8f 12 64 be e9 bc b1 b7 70 e3 2f bc
       -0.07043988 -0.22272705 -2.1188012e-05 -0.010735378
000370 9f f8 49 be 0c 0f 8f b8 fd dd b2 bc 07 b4 af bc
       -0.19723748 -6.821574e-05 -0.021834368 -0.021448148
000380 08 ad f1 3c 5f 13 52 be 6b 26 77 3c 9a 36 69 bd
       0.029501453 -0.20515202 0.015084843 -0.056936838
000390 fa 0e 6e be 66 b0 a6 bd 20 6c cb bc 1d 0e 1b ba
       -0.232479 -0.08139114 -0.024831831 -0.0005914884
0003a0 b7 01 6d 3c 5c 71 6a be 17 6d 3a 3d 2c 16 f7 bc
       0.014465741 -0.22894806 0.045514192 -0.03016194
0003b0 3c 1f 9e be 1f 86 6f be b1 88 1c 3d c8 9e c7 bc
       -0.30883205 -0.23391007 0.038216297 -0.024367705
0003c0 c2 7f bf 3d 3f 5d 03 3e ed c3 10 bd 61 3f c6 3b
       0.0935054 0.1282854 -0.0353431 0.006050036
0003d0 43 97 2a be 92 38 ac bd ad 12 0b bc ff 77 b5 bb
       -0.16659264 -0.084092274 -0.008488339 -0.0055379863
0003e0 d4 d9 87 3c 94 10 1c bd 97 2d 3b 3c 48 89 91 bb
       0.01658336 -0.038101748 0.011424444 -0.004441414
0003f0 ef c6 b9 bd 89 17 96 bd 2a 84 29 bd 43 e1 eb bd
       -0.09071147 -0.07328708 -0.041385807 -0.11517575

fc1.bias f4 [200]
000000 97 9d e3 bd db e0 3a 3d af 09 4a 3e 0e a5 e4 bd
       -0.11114042 0.045624595 0.19730256 -0.11164294
000010 7f 2b e9 bd a3 48 39 be 55 cc 27 be b0 f4 8e bd
       -0.11385249 -0.18094115 -0.1638654 -0.06980264
000020 5d 91 23 3d bb 06 89 bd 47 35 a3 3d ad 63 c2 3d
       0.03993355 -0.06690737 0.07969146 0.09491668
000030 de dd 16 bd bb 59 2a 3d 7b 78 d2 3d 0e 2c 09 3e
       -0.036832683 0.04158948 0.10276886 0.13395712
000040 95 2c 1a bd 80 4c 1c 3e f4 23 76 bc 82 0b 1b 3d
       -0.037640173 0.15263557 -0.01502322 0.03785277
000050 dc 19 89 be 99 86 cb bc 69 f4 92 bd 2d 30 90 3d
       -0.26777542 -0.024844455 -0.07175524 0.07040439
000060 b0 58 5b 3e f3 65 77 3d 25 5c 1f be aa 3b 0d 3e
       0.2142055 0.06039996 -0.15562494 0.13792291
000070 5c 19 56 3e 9b ef 2f be 37 fe a5 3d 6c 06 07 bd
       0.20908111 -0.17181246 0.08105128 -0.03296511
000080 d2 f8 36 bc 90 84 99 3d 70 30 b9 3d c4 68 20 3d
       -0.011167722 0.074959874 0.09042442 0.039162412
000090 23 f2 1d 3e 7f 08 da bc 38 80 74 3b ee 75 04 3c
       0.15424399 -0.02661538 0.003730787 0.008084757
0000a0 a9 7f 88 3e 8e c3 89 3e 58 d7 69 3d ac 85 3b 3d
       0.26659897 0.2690701 0.057090133 0.045781776
0000b0 c4 58 ab bd bf de dc bd e8 ff 10 3e e5 63 98 3e
       -0.0836654 -0.10784673 0.1416012 0.29763713
0000c0 2a d8 2f 3d fd ec 5c be ec bc 02 be 83 76 04 3e
       0.04293076 -0.21574779 -0.1276738 0.12935834
0000d0 8f aa 5f 3e b6 48 3e 3e 1d 11 09 3c 23 96 51 3d
       0.21842407 0.18582425 0.0083658965 0.051168572
0000e0 55 5b 1a be d7 57 ee bc fe c3 3b bd 69 e7 02 3c
       -0.15073903 -0.02909462 -0.04584121 0.007989743
0000f0 df ac 60 bd e4 af c1 bd d4 8a f0 bd 61 aa e5 3d
       -0.054852363 -0.094573766 -0.11745229 0.11214138
000100 26 58 7a 3e bd fd 95 3d 8b fa 1c 3e fd 6f a3 3c
       0.24447688 0.07323787 0.1532995 0.019950861
000110 10 21 d5 3d 14 5e 6c 3d f1 af 1f 3e 39 a1 0c be
       0.10406697 0.057706907 0.1559446 -0.13733377
000120 1d e0 66 be e4 aa 28 3e a6 52 3d 3c 70 30 26 be
       -0.2254643 0.1647144 0.011555349 -0.16229415
000130 89 0e 4b be 9c 56 0d be 05 11 16 3e e7 9c 8c 3c
       -0.19829763 -0.1380257 0.1465493 0.01716466
000140 6c e8 87 bc b9 ab 63 3d 46 ba 87 3d 2c aa ee 3d
       -0.01659032 0.05558369 0.06627326 0.116535515
000150 5e bb d3 3d 20 76 61 bd a7 b3 fc bd d0 24 54 3c
       0.10338472 -0.055044293 -0.123389535 0.01294823
000160 bd 1f 2e 3e d9 f5 3c bd c0 d1 38 be fc 68 19 3e
       0.17004295 -0.046132896 -0.18048763 0.14981455
000170 7b 46 01 be db b7 55 3e 60 62 54 3e f9 89 86 bd
       -0.12624542 0.20870917 0.20740652 -0.06569285
000180 4f ca 19 be 8a 14 7e 3d 40 bb e7 bd b4 3d eb 3d
       -0.15018581 0.062031306 -0.11315012 0.11486378
000190 44 ba 29 3e a8 56 88 bd 1e c7 ad 3d e1 95 54 3e
       0.16574961 -0.06657153 0.08485244 0.207603
0001a0 84 5c 1c be a6 db 10 bd eb f9 90 3c 8f 30 df 3d
       -0.15269667 -0.035365723 0.017697295 0.10897934
0001b0 88 a4 dd 3b 81 d7 31 be fc 18 b7 bd 93 2c 16 3e
       0.0067639984 -0.17367364 -0.08940312 0.14665441
0001c0 34 8f 01 be 2f 64 35 3e cf 66 f6 3d f6 a1 a1 3d
       -0.12652284 0.17713998 0.12031328 0.0789222
0001d0 10 54 89 bd d6 03 c0 bd ea a2 8d 3d b3 f5 3f be
       -0.06705487 -0.09375732 0.06915839 -0.1874607
0001e0 f2 b5 05 3d 4c 9e 1e be 29 a6 82 3d 7a f5 b3 bd
       0.03264422 -0.15490073 0.06379349 -0.08787055
0001f0 8a ac f8 bd 38 6c 18 3e fd 0d 83 bd be af 5a 3e
       -0.12142284 0.14885032 -0.063991524 0.21356103
000200 21 32 8f 3d 80 c1 ab 3d 0d 52 a6 3d 5a 70 3d 3e
       0.06991983 0.083865166 0.08121119 0.1849989
000210 fa 22 a5 3d 24 2d da bc 1c dd 59 3e fa 45 0f 3e
       0.08063312 -0.026632853 0.21275753 0.13991538
000220 ab ef b3 3d 72 9a 36 be 38 08 30 3e ee 0e 77 3e
       0.087859474 -0.17832354 0.17190635 0.24126789
000230 c5 2b dc 3c d5 2f 8b 3e cd a0 0d bd 42 1b 55 3b
       0.02687634 0.2718493 -0.03457718 0.0032517468
000240 b1 46 5f 3e 4f 77 38 be f1 b3 54 bd f8 ee b0 3d
       0.2180431 -0.18014263 -0.051929418 0.0863933
000250 89 99 fc 3d 16 bb fb bd 02 a1 6e 3e 8c 10 8d 3d
       0.12333972 -0.12291543 0.23303607 0.06887922
000260 b1 f4 2f 3d 19 ae 38 3e 49 55 16 3d 66 3b 44 3e
       0.042957965 0.18035163 0.036702428 0.19163284
000270 a2 fd 95 3d dd bd de bd 14 cf 2e 3e 55 eb 97 3e
       0.07323767 -0.10876057 0.17071182 0.29671732
000280 2b 7b e8 bd 66 eb ad 3d 6f a6 30 3d a4 8f 20 be
       -0.113516174 0.08492164 0.043127473 -0.15679795
000290 14 4a 14 3d d7 93 7d bc c9 95 5e 3e da de 0a bd
       0.03620346 -0.015477142 0.21736826 -0.033903934
0002a0 4f 80 02 3e 65 7d df 3d b8 86 8f 3e 55 c9 91 3e
       0.12744258 0.10912589 0.2803247 0.28473917
0002b0 f1 86 55 3e d1 27 3b be d2 7a 3c be 94 1b 8c 3c
       0.20852257 -0.18276908 -0.18406227 0.017102994
0002c0 6b d4 4b 3d ab 16 e1 3d 59 26 75 be c6 90 3e 3e
       0.049763124 0.10990652 -0.2394041 0.18609914
0002d0 d8 09 38 3e 4f 56 07 be f5 a0 81 3e 0d 69 02 3e
       0.17972505 -0.13216518 0.25318113 0.12735386
0002e0 b8 65 99 bd 2a 7c 41 bc 7f 01 54 3d 73 e5 c4 bd
       -0.074901044 -0.011809388 0.05175924 -0.096140765
0002f0 a3 d6 be 3d a4 9a 3c be 39 4f 42 3b 1b 1f 0b 3e
       0.093182825 -0.18418366 0.002964927 0.13586085
000300 bc 90 dc bd a1 a1 48 3e a6 1f c7 bc 6e 30 0f 3e
       -0.107697934 0.19592907 -0.024307083 0.13983318
000310 52 21 71 bd 66 ab 53 bc 1a 70 90 bc 2f 84 4a 3e
       -0.058869667 -0.012919283 -0.01763158 0.19776987

fc2.weight f4 [150, 200]
000000 76 c2 9a bd 63 f5 8b be 4e ad bb bc 8a d1 81 bc
       -0.07556622 -0.27335653 -0.022909787 -0.015846986
000010 9c a2 33 3e b1 2e c4 3c cc fb 95 3c c9 27 6e bd
       0.175425 0.023948045 0.018308543 -0.05814341
000020 3e 7a 02 3c cc b9 a7 be f6 71 2f be 3e 7a 82 3d
       0.007963715 -0.3275894 -0.17133316 0.06370972
000030 fb d4 16 be 69 cd 8e bd d3 fe 27 3d 0c 33 af 3d
       -0.14729683 -0.06972773 0.041014504 0.08554658
000040 88 1e 3e 3d 0f 7c aa 3d ed dc 69 bd 8b 3b 65 3d
       0.046415836 0.083244435 -0.057095457 0.055964988
000050 fc c1 7b bd 99 d7 0b 3e c3 ba f7 3d 9c ce 9f bd
       -0.061464295 0.13656463 0.12096169 -0.078030795
000060 f0 cf da 3c 30 d0 bd 3d ba 46 23 b9 10 b0 d8 bb
       0.02671048 0.09268224 -0.00015571239 -0.006612785
000070 38 a1 ce bd 18 3e 7d 3d 54 63 d2 3b 94 58 f6 3b
       -0.10089344 0.061826795 0.0064205322 0.0075178836
000080 30 93 0f 3e 07 a1 0f 3e 54 4b db 3d f4 b8 a4 3d
       0.14020991 0.14026271 0.10707727 0.080430895
000090 45 53 40 3d 79 bf 19 bd 90 b6 74 bd 34 49 15 3d
       0.046954412 -0.03753612 -0.059744418 0.036446765
0000a0 91 2f c2 39 2e 09 93 3c e1 2a 19 be 49 b3 fd 3c
       0.00037038003 0.017948713 -0.14957763 0.030969279
0000b0 22 0e 2b be 8c 28 27 be 81 d8 a9 3d e4 31 16 be
       -0.1670461 -0.16324061 0.08293248 -0.1466747
0000c0 72 a6 19 bd b4 de 7b 3c 95 5e 9c bd cd bb 9a bd
       -0.03751225 0.015372921 -0.076352276 -0.075553514
0000d0 5e 17 0d 3e 7b 99 3e 3d 31 c9 92 bd 6d 6f 83 3d
       0.13778445 0.04653309 -0.071672805 0.06417737
0000e0 3e c0 b3 3d 8b 61 0f 3e 1d 2d 51 bd 44 ba 7f bd
       0.08776902 0.14002053 -0.051068414 -0.062433496
0000f0 74 42 86 bd 2f c4 93 bd 71 af 89 bc 56 90 50 3d
       -0.06555644 -0.072151534 -0.01680729 0.0509189
000100 bd f7 a7 3d fd a2 9d 3d 80 98 46 bd 48 0c ec 3d
       0.08201549 0.07697103 -0.04848528 0.1152578
000110 fb e6 b6 3d b9 a7 83 bc ee 2e 08 3e 3d 98 26 bc
       0.08930775 -0.016071187 0.13299152 -0.010168132
000120 d2 3a f9 bb b0 8a 8a bd 93 9a be 3c 13 a5 05 3e
       -0.007605889 -0.06764734 0.023267066 0.13051252
000130 e9 0a 83 3d a6 00 1a bc 6e 6f da bc 6c af 35 3c
       0.06398565 -0.009399569 -0.026664462 0.011089187
000140 bd 27 fe 3d 41 a5 38 3d fa 53 1a 3d dd ad 55 bd
       0.12409923 0.045079473 0.037677743 -0.052167762
000150 4f b2 cb 3d 38 4c cd 3d 0d 42 04 3e 60 22 d0 bd
       0.09946119 0.10024303 0.12915821 -0.101628065
000160 d5 43 f4 3c 47 a0 b6 3d ff 84 8b 3d c1 09 b2 3d
       0.029817501 0.08917289 0.06812476 0.08693267
000170 87 41 d7 bc 56 e2 ae bd 8d 9b fe 3d bc 2e dd 3c
       -0.026276363 -0.08539264 0.12432013 0.026999824
000180 d3 2e 33 3e 34 c6 e7 3c 9a c1 00 3d 01 43 33 be
       0.17498331 0.028292753 0.031434633 -0.17506029
000190 1b 63 f0 bd 28 9c bb 3c f0 22 a6 3d 46 57 33 3d
       -0.11737653 0.02290161 0.081121325 0.043784402
0001a0 3b c4 2a 3e e3 61 10 bd d9 01 19 bd a2 60 d4 3d
       0.16676418 -0.035249602 -0.037355278 0.10369994
0001b0 71 44 37 3e ab e2 c4 bd c3 56 df 3c f5 fb b7 3d
       0.17897202 -0.09613546 0.02726305 0.08983604
0001c0 ba 45 37 3d 3b a5 a4 3c bc 6a 8f 3d b9 02 a9 3d
       0.04474423 0.02009832 0.0700278 0.082524724
0001d0 a9 40 0b 3d d5 8a 9e 3c 44 a7 54 3d 81 f3 11 bd
       0.03399721 0.01935331 0.05191733 -0.035632614
0001e0 c9 6d 94 bd 00 95 88 bc ef 8b 2a 3c 85 cf e3 bd
       -0.07247502 -0.016672611 0.010409339 -0.111235656
0001f0 89 32 8f bd cd 27 dc 3b b8 56 0d bd 49 c1 4a 3d
       -0.06992061 0.006718612 -0.03450653 0.049500737
000200 21 44 a2 3d 0c f1 bf bd eb 75 bb 3d 72 38 e6 bc
       0.07923151 -0.09372148 0.091533504 -0.028103087
000210 65 62 ae 3d 18 1e 07 bb 16 da 01 be 5f 8a ae 3d
       0.08514861 -0.0020617303 -0.1268085 0.08522486
000220 72 3b be 3d a7 fb 54 bd 03 dc 95 bd 52 0a 0f 3d
       0.09288682 -0.051997807 -0.073173545 0.03492195
000230 cc bd 08 3e e6 ee 76 be 7f bb 9b 3d bf f4 ab 3c
       0.13353652 -0.2411457 0.076041214 0.020990727
000240 34 6c d3 3d 58 6f 27 3d b4 3e 26 3c 58 ed ec bd
       0.103233725 0.04087767 0.0101467855 -0.11568707
000250 2c d4 35 3d 47 52 75 3d 31 34 5c 3d 32 7a 2a 3c
       0.044391796 0.05989292 0.05376071 0.01040511
000260 33 78 6b bd 03 32 88 be a9 fe 27 be 43 a3 0f 3e
       -0.057487678 -0.26600656 -0.16405739 0.14027123
000270 2f ec ad 3d 27 fa ed bb 00 df a4 3c cc 93 f1 bc
       0.08492314 -0.0072624865 0.020125866 -0.02948942
000280 ad 13 05 3e fa f9 2c bd c2 0d a7 3d 9e 68 07 bc
       0.12995787 -0.042230584 0.08156921 -0.008264689
000290 0c d6 86 bd df ed d1 3b be 9d 9e 3d 39 a2 66 bd
       -0.06583795 0.0064065303 0.07744931 -0.05630705
0002a0 fe b0 02 3e 26 8a c1 bd f5 ea 8b 3d 32 71 9e be
       0.1276283 -0.09450178 0.06831924 -0.30945736
0002b0 ff 7c 1f be 9f 3a 42 bd 4f 22 92 bd f0 5c 81 3d
       -0.15575026 -0.047419187 -0.0713545 0.063165545
0002c0 1c 49 cd bd 8f 3d 4d bc 1f ad 09 be 8c 6c a8 bd
       -0.1002371 -0.012526884 -0.13444947 -0.08223829
0002d0 df ad 5c 3a d2 1e 27 3e fa 49 48 be 6b ee 13 bd
       0.0008418243 0.16320351 -0.1955947 -0.036116045
0002e0 20 c6 15 3e ea 5e f3 bc a8 de a6 3c 55 9c 90 bc
       0.1462636 -0.029708344 0.020369843 -0.01765267
0002f0 a3 85 9c 3d 22 69 98 3c 74 f3 96 3c d0 e6 ed bd
       0.07642677 0.018604819 0.018426634 -0.116162896
000300 05 21 2d 3e 78 9c af 3d eb f7 22 3e 76 db c6 bb
       0.16907127 0.08574766 0.15914886 -0.0060686423
000310 84 85 78 bb b3 a7 4c bd 4f ee 0f be 21 73 1f 3d
       -0.0037921378 -0.049964618 -0.14055751 0.038928155
000320 19 8e a1 3d 81 d7 b7 bd a6 9c 9c 3d c1 6f 4c 3c
       0.07888431 -0.08976651 0.07647066 0.012477816
000330 b6 c1 8d bc 33 03 40 3d 01 3d 16 bd d0 41 23 3c
       -0.017304283 0.04687805 -0.03667927 0.009964421
000340 e4 63 5b 3e 8a 57 a6 bd 44 34 fb 3c 81 40 11 be
       0.21424824 -0.081221655 0.03066457 -0.14184763
000350 d2 7e b2 bd b9 1e 84 be e7 bf cf 3d 3c c1 1b 3d
       -0.08715595 -0.2580469 0.10144024 0.03802608
000360 6e 0f f4 3a 0e 8d 05 3e dd 07 a0 bd b9 14 d5 3d
       0.0018620321 0.1304209 -0.07814 0.10404343
000370 0e cb 4d bd 47 df bc bd 75 3a 82 3d 78 3b 32 be
       -0.050242476 -0.09222274 0.06358806 -0.17405498
000380 2c d3 ec 3c c6 16 09 3e 4a fc 1d 3e 8c 5c 2b be
       0.028909288 0.13387594 0.15428272 -0.16734523
000390 3b cf ab 3d f6 4c d6 3c 5e 9c 1b bd aa 75 a2 3c
       0.083891355 0.026159745 -0.03799092 0.019831497
0003a0 7e 4d ce bd 85 b1 3d bc ea 39 74 3d 99 3a f6 bc
       -0.10073374 -0.0115779685 0.059625544 -0.030057238
0003b0 a7 27 08 3c d9 22 52 bc e0 03 b9 3d 8e 08 07 3d
       0.008310235 -0.012825691 0.09033942 0.032967143
0003c0 74 ca fd 3d be 3f ec 3d 5a ed 25 be e2 f9 00 3d
       0.123921305 0.11535595 -0.16203824 0.031488307
0003d0 c4 28 42 be 5b c4 bc be 73 f2 89 3d 58 21 f7 bc
       -0.18960863 -0.36868557 0.06735697 -0.030167267
0003e0 8f b4 dd bd 21 96 57 be a4 6b b6 bd 7d f3 9e bd
       -0.108254544 -0.21053363 -0.089072496 -0.077612855
0003f0 2c 70 f3 3d 9f b9 83 3d ed 99 03 3e 56 4f 18 3e
       0.118866295 0.06431889 0.12851687 0.14874014

fc2.bias f4 [150]
000000 35 0b f2 bb 42 3f 01 bd 0d b4 85 3d d3 10 72 3d
       -0.00738659 -0.031554468 0.065284826 0.059098076
000010 42 d0 59 bd 5f b7 70 3d 70 03 a8 bc df 76 8b bb
       -0.053177126 0.058768626 -0.020509452 -0.004256114
000020 8a 77 33 3d 80 1a 80 3d b1 7e 4c 3d bd 48 57 3d
       0.043815173 0.062550545 0.04992551 0.052559603
000030 c3 e3 31 3d 0e 6c ef 3d d7 6f a5 3d b3 8a 82 bc
       0.0434301 0.11690532 0.080779724 -0.015935278
000040 8a 3b 03 bd ea 34 9f b9 e2 d2 8f bc a2 8b b4 bc
       -0.032039203 -0.00030366267 -0.017556611 -0.022039238
000050 91 43 b4 3d 1e 1a 05 bd 3a ec de 3d 26 d0 46 bd
       0.0880195 -0.03249561 0.108849004 -0.04853835
000060 e7 cc 75 3d 0c 79 d2 3d 90 52 d5 ba c3 2f 5c bc
       0.060009863 0.10276994 -0.0016275216 -0.013439122
000070 01 b0 b2 3d 0f 92 55 bd ba 3a f5 bc 4f 45 7d bd
       0.08724976 -0.052141245 -0.02993523 -0.061833676
000080 f9 a5 82 3c c0 d9 0e 3d f9 c2 a5 3d 6e f3 60 3c
       0.015948283 0.03487563 0.08093829 0.013729913
000090 20 86 42 3d df 46 25 bc ca 43 71 3d fa d0 5a bd
       0.047491193 -0.010087698 0.05890254 -0.05342195
0000a0 f7 bc d1 3d 94 05 e2 3c ef e1 48 bc e9 93 99 bd
       0.1024112 0.02759055 -0.012260898 -0.07498915
0000b0 19 84 bc bc a3 02 97 3d da da 9a bc d8 6e 18 3d
       -0.023012208 0.0737355 -0.018903185 0.037215084
0000c0 97 00 a4 bc d0 2b 3c bd e2 a8 b6 3a f9 95 dc 3b
       -0.020019813 -0.04594022 0.0013935829 0.0067317453
0000d0 de 8a 08 bd d0 46 d6 bc c8 c1 7d 3d fe a5 e7 3a
       -0.03333556 -0.026156813 0.061952382 0.0017673371
0000e0 5b eb 2f 3d 60 26 5f 3d 99 9d 5b bd a8 11 28 bd
       0.04294906 0.054479957 -0.053617094 -0.041032463
0000f0 2c 4b 92 3c 30 85 78 bd 1d b4 f7 bb 5c 2c 9c bd
       0.01785811 -0.060673892 -0.007559313 -0.076256484
000100 9d 6c 80 3d 25 87 98 3c 15 3c e6 bc 9f 20 5f bc
       0.06270716 0.01861913 -0.028104821 -0.013618617
000110 fa ef 16 bd c8 ee 8c 3c 56 77 ae 3d c4 b7 32 3d
       -0.036849953 0.017203704 0.08518855 0.043632284
000120 61 00 51 3c 06 cd e9 bc 53 cf 18 bd 4d 61 2e bd
       0.012756438 -0.028540146 -0.037307095 -0.042573262
000130 da c2 f9 bc ab 2f 3e bb 03 1e d0 bc a0 2e 5a 3d
       -0.03048842 -0.0029020112 -0.025404936 0.05326712
000140 1b 21 99 3b 92 c5 97 3d 4d 60 67 bd 44 b6 b9 3d
       0.004673136 0.074107304 -0.056488324 0.090679675
000150 19 5f 10 3d e9 3b dd bb d1 e9 22 3d 6e e4 8e 3d
       0.035246942 -0.0067515266 0.039773766 0.06977163
000160 95 19 57 3d e5 61 0a 3d 2a d2 d8 3d 72 13 f5 3d
       0.05251463 0.033784766 0.105869606 0.119665995
000170 38 18 f1 bb 79 48 a9 3b 51 48 d5 3d 17 6f 09 3d
       -0.0073576234 0.00516611 0.10414184 0.03355321
000180 b0 84 9d 3d 3c 91 e4 bb 55 6c 0b bc 10 f3 63 3b
       0.07691324 -0.006975321 -0.008509715 0.0034782328
000190 1a 38 3c bb c5 34 82 3d 20 50 4f 3b ad b8 60 bc
       -0.0028719963 0.06357721 0.0031633452 -0.013715905
0001a0 d4 54 93 bd 48 ae a5 3d cf e3 7c 3d 58 1b 4c 3d
       -0.07193914 0.08089882 0.061740693 0.049830765
0001b0 dd 79 b0 3c b8 a5 c4 bc 49 6d 0a bd ee 69 c9 3d
       0.021542484 -0.024004802 -0.03379563 0.098346576
0001c0 a4 41 06 3d 27 0c 61 3d 96 18 3e 3d 6e f5 c0 bc
       0.032777444 0.05494323 0.046410166 -0.02355453
0001d0 f2 6e 94 3b 8e 05 f4 3c 65 8a 43 bd 10 ef d8 3b
       0.0045298273 0.029787805 -0.047739405 0.0066202953
0001e0 3a 08 f5 3d c6 d7 6a 3d a2 b3 77 3d 6e 23 71 3d
       0.1196446 0.057334684 0.060474046 0.05887168
0001f0 75 3f 76 3d b6 90 e1 3d 1a 9d bf 3c 68 9f 9b bc
       0.06011911 0.110139295 0.023390342 -0.01899691
000200 d5 ae f3 3c 9d 91 70 3c 52 af 7c 3d 70 f5 b0 3b
       0.029746452 0.014683154 0.061690636 0.005400352
000210 62 de 06 bc ed bd 0c 3d 31 e2 5c bd ab 74 93 3d
       -0.008231731 0.034360815 -0.05392665 0.07199987
000220 20 85 89 3d 74 14 3f bc 7f 27 6f 3c c5 8c 0d bd
       0.06714845 -0.011662591 0.014596819 -0.034558076
000230 7d 3e 97 3c 02 0d 80 bc f9 af 28 bb 6a be 5d 3c
       0.018462414 -0.015631203 -0.0025739654 0.013534168
000240 5a b5 9a 3d 52 9c e8 3d bd 59 5f bc a1 d2 90 bc
       0.07554121 0.11357941 -0.013632235 -0.01767856
000250 f3 db 06 3d 29 2d 07 3e
       0.032924604 0.13200821

fc3.weight f4 [2, 150]
000000 f8 a5 b8 bd b4 50 a7 3d 04 22 0b 3c 8e 30 d2 bb
       -0.09016031 0.0816969 0.008491997 -0.0064144796
000010 a4 72 b7 bc a4 ab 21 3d 46 83 18 be 47 f0 bd bd
       -0.022393532 0.03947033 -0.14893827 -0.09274345
000020 ab 54 fa bd 92 8c 5e be c2 e3 fc bb 97 1c 36 be
       -0.122231804 -0.21733311 -0.0077175805 -0.17784344
000030 80 0e 82 3e 4f 39 be 3d a7 84 06 be b9 d6 ed be
       0.25401688 0.092882745 -0.1313654 -0.46452883
000040 b6 31 21 bd 2e cd 4c 3d 6a f9 9b bd 2a 61 08 3e
       -0.03935405 0.050000362 -0.07615931 0.13318315
000050 d5 f4 ba 3d 1c 2d 8c 3d 9f 12 0c be 67 94 ac 3d
       0.09128729 0.068445414 -0.13678978 0.08426743
000060 c1 1a 80 3d 29 e2 f4 be 62 e1 09 be 26 02 12 be
       0.06255103 -0.47828797 -0.13464883 -0.14258632
000070 d8 c1 06 be e5 f9 cc 3d 27 2e 08 bc 03 f2 00 3d
       -0.13159883 0.10008601 -0.008311785 0.0314808
000080 aa 44 4d bd ae e5 43 3d 5d 07 38 bd 33 2f 81 bd
       -0.05011431 0.04782646 -0.044928897 -0.06307831
000090 73 77 26 be ba 26 a8 bd 05 df 71 be 5e 70 c0 3e
       -0.16256504 -0.082105115 -0.23620231 0.3758573
0000a0 6a 5a 58 ba d2 a9 10 be 0b 3c 1f 3d 27 54 80 3d
       -0.0008253219 -0.14127281 0.03887562 0.06266051
0000b0 b5 8d e3 3d 36 6d 06 be 76 35 44 3b ba c5 31 be
       0.11111013 -0.13127598 0.0029939092 -0.17360583
0000c0 42 c8 fd bc 7b 39 96 bd 7f e3 03 bd 2a e8 8c bd
       -0.03097928 -0.07335182 -0.03219938 -0.06880219
0000d0 37 d0 9f 3d d9 03 1b be fe e4 69 3b 85 61 a7 3d
       0.07803386 -0.15138187 0.0035689468 0.08172897
0000e0 e9 29 a6 be dd 45 91 bc 27 ed a6 3c 94 5a ac bd
       -0.3245385 -0.017733509 0.020376755 -0.08415714
0000f0 3f 6b 19 3c d0 82 25 3e b3 93 df 3c 1e 78 38 bb
       0.009363948 0.16163182 0.027292108 -0.0028147767
000100 8b 9c 49 be b5 32 41 bd 70 09 0b 3e 91 76 11 3e
       -0.19688623 -0.0471675 0.13577819 0.14205386
000110 f3 52 21 3d 3a d6 e4 bd ba fc ef be e7 58 0f 3e
       0.039385747 -0.11173673 -0.46872503 0.13998757
000120 f6 67 a3 3d 79 f4 95 3b 3c 7d e4 3d cc f3 99 bd
       0.07978813 0.0045762626 0.11156699 -0.07517204
000130 28 6f 27 be 28 7e b3 be c6 68 84 3d f8 aa c6 bd
       -0.16350996 -0.35057187 0.064652964 -0.097005785
000140 cb 63 c5 bd 06 d6 63 3d b2 cd d3 bd 9e 0a b7 bd
       -0.096381746 0.05562403 -0.10341968 -0.08937572
000150 47 dd 98 3c bb 04 96 3d 26 4e b4 3d 7c 67 1b 3d
       0.0186602 0.07325121 0.08803968 0.037940487
000160 a5 41 b3 bd 9d 72 81 3d be 78 4d bd 27 54 60 3d
       -0.08752755 0.06320689 -0.050163977 0.054767754
000170 ff 4e 62 bd 2e 85 fb bc 53 5b bf bd 66 7c 8a bd
       -0.055251118 -0.030703153 -0.093435906 -0.06762008
000180 a7 2c 6c bd bb a6 ed 3b 05 f0 56 3e e4 2d 7c bc
       -0.05765977 0.007252542 0.20989998 -0.015391801
000190 60 5b 01 3e 23 f2 90 3a 89 52 8f bd c4 fe 75 3e
       0.12632513 0.001105849 -0.06998164 0.24022967
0001a0 0d 69 be 3d 85 12 c2 bd 32 62 54 3c 29 2a 87 3d
       0.092973806 -0.094761886 0.012962865 0.06599838
0001b0 50 cd f1 3c 8d 4f 0a bd 99 0e 20 3e cd 99 ff 3d
       0.029516846 -0.03376727 0.15630569 0.12480507
0001c0 6e 07 9c be 21 11 19 3b 12 cf 66 3d ea ad 86 3e
       -0.30474418 0.0023356157 0.05634982 0.2630456
0001d0 44 5a 2a be 9b 18 81 bd ab 83 ee bd e9 bb b1 ba
       -0.16635996 -0.06303521 -0.116462074 -0.001356003
0001e0 d2 b2 ba be 2e 21 14 3d 69 49 18 bd 8d 85 a5 bc
       -0.36464554 0.036164455 -0.037179384 -0.020205284
0001f0 cc fa ff 3d eb 16 bb bd 5d cf 87 bd 9d ba 82 3e
       0.124990076 -0.09135231 -0.06631348 0.25533
000200 cc f6 10 3d 81 64 07 be d7 a2 9b 3d 9a 8f 76 3c
       0.035391614 -0.13221933 0.075994186 0.015048886
000210 e9 85 1a 3e 4f 6d 03 be 03 12 a0 3d 4c c8 d2 bd
       0.15090145 -0.12834667 0.078159355 -0.1029211
000220 a1 c7 b2 bd a3 1a 11 3c 47 04 83 3d dd e1 78 3d
       -0.087294824 0.008856448 0.063973 0.060762275
000230 6b 58 b5 3d 0e 3a 66 bd 26 e3 8b bd cd 35 98 bc
       0.08854755 -0.05620771 -0.068304345 -0.018580342
000240 4c c8 5d be b1 bd c0 bd 20 61 e8 3d ee c4 bf 3c
       -0.21658438 -0.09411181 0.1134665 0.023409333
000250 8a 7a 80 be f6 06 10 be 2b 78 17 be 66 b5 c9 be
       -0.2509349 -0.14065155 -0.14791934 -0.3939621
000260 8d 38 3a be 4b 90 f7 bd 55 0d 94 3c de ae 04 be
       -0.18185635 -0.120880686 0.018072763 -0.12957332
000270 60 6f 61 3d f4 0b 23 3d 6c 83 b0 be 00 67 a8 3d
       0.055037856 0.03980632 -0.34475267 0.08222771
000280 0e 6f 91 be e2 39 40 be 2f b4 8f 3c 76 af 1e be
       -0.2840504 -0.1877208 0.017541973 -0.1549662
000290 92 8f 26 3d 21 08 60 be 3d 14 be 3d bc 6b 03 3e
       0.040664263 -0.21878101 0.09281204 0.12834066
0002a0 e8 92 fd bc 89 b9 72 be b2 90 04 3e 8e b8 be bd
       -0.03095384 -0.23703589 0.12945822 -0.09312545
0002b0 e9 a9 93 bd 68 51 81 3c 5f 01 50 be 49 74 a6 be
       -0.07210142 0.015785888 -0.20313023 -0.32510594
0002c0 84 48 1f 3d 90 33 f7 3d 13 2d 50 3e 32 70 a7 bd
       0.038887516 0.12070382 0.20329694 -0.081756964
0002d0 49 6e 49 bd c7 45 97 3d 6a 59 44 3d 39 10 98 be
       -0.04917744 0.07386356 0.047936834 -0.29699877
0002e0 05 0a 54 be 9d c4 c6 be c9 f4 e0 3d 47 4f 2d 3d
       -0.20706947 -0.3882188 0.10984189 0.042311933
0002f0 99 03 1e 3e ea 78 c5 3e 67 da c3 3d 48 2f b3 bc
       0.1543106 0.38568813 0.09563141 -0.021873131
000300 61 3a 9f be 8a 19 61 bd d6 8f 63 be 85 06 b1 3d
       -0.31099227 -0.054955997 -0.22222838 0.086438216
000310 fa 69 96 3d b8 a5 26 3c e7 e3 b3 3d 8f 97 90 bd
       0.07344432 0.010171346 0.08783703 -0.070601575
000320 5e 17 73 bd 52 e0 19 bf e5 ad 6f 3d 5b a2 ce bd
       -0.059348457 -0.6010791 0.058515448 -0.100895606
000330 7f 63 d8 be cb 9c d7 bc f1 d0 14 be a9 e6 66 3d
       -0.4226341 -0.026319882 -0.1453283 0.05637232
000340 26 b3 41 be 37 a2 d0 bc bc 0a 9f be 62 79 99 bc
       -0.18915996 -0.025467975 -0.31062877 -0.018734638
000350 3b f1 c1 be 15 00 9f 3d 08 3c 2c be 00 8c a4 be
       -0.37879357 0.077636875 -0.16819775 -0.32138062
000360 af 37 5b be 29 2b 9f bd 79 2a 26 3d f9 d9 8e 3b
       -0.2140796 -0.07771904 0.04056785 0.0043594805
000370 23 b0 a9 be 13 ee 25 be 5b c1 aa bd b0 d0 d7 3d
       -0.33142194 -0.162041 -0.08337661 0.10537851
000380 8a eb a7 bc 58 40 e3 be 8e 38 65 be a5 cc 53 bd
       -0.020498056 -0.44385028 -0.22384855 -0.051708836
000390 d2 5b 53 bd 49 ba b4 3c 99 0b 4c 3e 5e 6f 61 be
       -0.05160124 0.022061484 0.19926299 -0.2201514
0003a0 47 f7 8e be 00 0c e1 bd 12 a0 d9 ba 7c 13 19 bf
       -0.27923033 -0.10988617 -0.0016603491 -0.59795356
0003b0 6d e3 5d 3a 76 83 63 be 90 1d dd 3d 22 49 02 3e
       0.000846437 -0.22218117 0.10796654 0.1272321
0003c0 32 38 4d be ef f9 fe bd 84 b5 9c bd 15 83 4a be
       -0.20040968 -0.12450015 -0.07651809 -0.19776566
0003d0 7e 28 13 bd 45 e2 59 3d ac 3a 1f 3c b9 7e f1 be
       -0.03592729 0.053194303 0.009718578 -0.47166994
0003e0 97 75 22 be ed 55 95 3d 3d 1f 23 be 3c 4a 87 be
       -0.1586517 0.0729178 -0.15929885 -0.26423824
0003f0 be b8 d2 3c b6 2e 6d bd b0 7b 3b be 5d 30 da 3d
       0.025722858 -0.057905875 -0.18308902 0.10653756

fc3.bias f4 [2]
000000 5e e3 d4 3c c0 ce be 3d
       0.025987323 0.09316778
