checkpoint_actor0.pth (torch_old, 142817 bytes, 6 tensors)

fc1.weight f4 [200, 24]
00000000: 4490 743c 39ad 383e 8e24 56bd e3ba 9e3c
00000010: 8de1 e5bd bf47 0abe 8525 8e3d 916a 5e3c
00000020: c07d 433d bece 713e d07e 37bc 1537 093e
00000030: ac69 d2bd 313f 9ebe a269 8dbb 7b5f e63d
00000040: f32c afbc 60dd 753e 7a25 f03b 296c fe3c
00000050: 375d d2bd bb1e adbe be1a c73d e895 2ebd
00000060: 3633 0c3d 4445 bfbd e9ac bd3c f2e9 c03b
00000070: ab91 0abe 1b74 333e c95a 31bc bb3a 4fbd
00000080: 586b 203d 489f d0bd 0745 b63d 7ae3 763c
00000090: 66fd 8f3c ce79 383e 6270 453d ae36 93bd
000000a0: c874 f33c e722 10bd a4a7 d83c f6a3 ccbd
000000b0: 4892 cdbc d9ed 943d 47ed 9c3d 767f 93bd
000000c0: 21ae 1d3d 0fc0 753c 3eef c83d 52de 933d
000000d0: 3b89 b33d 2ec7 74bd a39e 7e3d 446f 1f3d
000000e0: b2d3 423d f861 043e cf1d 573d 04a5 1c3d
000000f0: dbc4 bb3d 72d4 50be 3333 8c3b 6c53 55bd
00000100: 85ca f2bc 7438 0f3e e577 efbc 3dc4 23bb
00000110: d6b2 a73d 0d9a 41be 725b 8d3d d2eb 023d
00000120: 49c6 fa3c 1625 fe3c dd4f 1c3d 6d98 55bd
00000130: 64e9 95bc cbe0 7e3d 1953 733d e6f4 00bd
00000140: 30b9 88bd f044 c6bd 2fbc 403d 6abe 1ebd
00000150: 56e4 e8bb 2e53 c93d 62a8 be3d eebc afbd
00000160: ce13 24bd 3365 ccbc 1836 01bd 6b9e 5bbd
00000170: a37b 1f3e d64f fb3d 33ef 55bc 0dfb 09bc
00000180: b6bb af3d 679b 593d a197 22bc 4755 a53c
00000190: 7013 573e 47fa 00be 672d a8bc 5eb9 2b3c
000001a0: 612c 58bc 71bd ba3c 0696 08bc c09d b03b
000001b0: 899e 943e 0b4f a5bb 3849 373c 29a4 893d
000001c0: 92c3 a9bd c20f c7bd 9367 a9bc 7f61 16be
000001d0: b1b9 653e 9678 443e 5cc0 8eba c892 c1bd
000001e0: 0ba6 73bc 577c 36bd 3ee7 6bbb 96ae 80bd
000001f0: 4cb3 283d f6b4 fc3d 5ebc 0dbd 5557 97bd
00000200: 106e 52bb c849 30bd fa95 5f3d fc0c fb39
00000210: f795 683d 1d7a 383e 65a5 9f3c 9ba1 b7bd
00000220: c834 a93b ff80 9f3c db49 dbbc fd57 abbd
00000230: 1370 bb3d 1c94 803e d144 973c 392f e4bb
00000240: afac 7a3d cc8a f0bc 54e4 dfbc cb75 4b3b
00000250: 5b5e d8bc 7594 143d a848 0bbc aa47 00bd
00000260: 0eb3 b53d b5ec 4dbd d2f0 aa3d 481b 2cbd
00000270: 3a99 9d3d 4c46 fa3d ae80 6c3d c007 a8bd
00000280: c830 bb3b 27ad ac3d ab97 9dbd a80f 2d3d
00000290: 9a36 1f3e 61b4 283e a09e cebc ce7b 183c
000002a0: 5bc5 063d 7b08 42be cd8a 80bc 7b58 e6bc
000002b0: 48db 323d 8dd0 36be 51bc febc e2d5 0fbd
000002c0: 05fe a63d a6ef 11be bf90 dbbb bcbe f83c
000002d0: e42b 973d b736 3dbc 2d09 bebc 3528 073d
000002e0: 2b61 743d 08f8 8ebe 58ae d03d a696 51be
000002f0: a769 14bc b2b1 223e 4a75 bb3d e255 17be
00000300: 253a 65bc 4e95 b43d f218 e33b 1ce4 7b3c
00000310: 37ed eabd 3927 2bbc 7a9a 1dbd b4ff 9b3c
00000320: 715a dabb a356 9d3d 58c1 373d 9296 913d
00000330: 1962 38be 027f 853d de0d ab3d ce7e 973d
00000340: 76f9 63bc 72b3 323d f1f8 82bb fa2d 113e
00000350: 2fd6 5bbe f22a cc3d 8d4a e8bc 0e20 043e
00000360: 2a38 05bd 368e 64bc 9b78 3dbd 0ee6 5cbd
00000370: f281 3abe bd80 283d bd67 8bbd 9263 84bd
00000380: b779 e43c c463 d9bb f668 ab3d d49e 56bd
00000390: fda3 88bd 93ba b23d cd52 333d e757 813b
000003a0: 40b5 c93b c89f 8cbb 9be5 f13d 9dc5 a4bd
000003b0: c8dd 43bc bfc3 3d3d 43f3 e23d cde7 98bd
000003c0: f459 3b3d 06b3 dd3d 4e17 d3bc 747f f03d
000003d0: 10e3 6dbe 00a3 debd d57e 8e3a d0c3 d83d
000003e0: 34d9 a4bc a058 0a3c 1941 b53d 7330 de3d
000003f0: aba3 20be c09b a0bd b131 123d b4ed 12bb
0.014926974 0.18034829 -0.052280955 0.019376224 -0.11224661 -0.13503931 0.0694075 0.013575212
0.047727346 0.23614022 -0.011199668 0.13399918 -0.102740616 -0.30907586 -0.004315571 0.1124868
-0.021383738 0.24010229 0.0073286863 0.031057434 -0.102716856 -0.33812508 0.097218975 -0.04262343
0.034228526 -0.09339383 0.023153739 0.0058872635 -0.1353213 0.1752476 -0.0108248675 -0.05059312
0.03916487 -0.101866305 0.08899885 0.015068883 0.017576884 0.18015215 0.04820288 -0.07188164
0.029718772 -0.035189535 0.026447125 -0.099922106 -0.025094166 0.07271928 0.076624446 -0.072020456
0.03849614 0.014999404 0.09811257 0.072201386 0.08766409 -0.059760265 0.062163007 0.03892447
0.04756517 0.12927997 0.052518662 0.03824331 0.091684066 -0.20393541 0.0042785644 -0.05208151
-0.029637584 0.13986379 -0.029231975 -0.0024988793 0.08188407 -0.18906422 0.069022074 0.031963177
0.030612128 0.031023543 0.0381621 -0.052147318 -0.018299766 0.062226098 0.05940542 -0.031483553
-0.06675947 -0.096811175 0.047054466 -0.03875581 -0.007107298 0.098303184 0.0930946 -0.08580957
-0.04005795 -0.0249506 -0.03154573 -0.053617876 0.15574507 0.12271087 -0.013057518 -0.008421672
0.08580725 0.05312672 -0.009923846 0.020182265 0.21003509 -0.12595473 -0.020529462 0.010481207
-0.0131941745 0.02279541 -0.00833655 0.005389899 0.29027203 -0.005044823 0.01118689 0.06720764
-0.08289255 -0.097198024 -0.02067927 -0.1468563 0.22434117 0.19186625 -0.0010891068 -0.094518244
-0.014871131 -0.044552173 -0.0035995985 -0.062832996 0.041186616 0.12339203 -0.03460347 -0.07389704
-0.003210906 -0.043039113 0.05458639 0.00047884125 0.056783643 0.18015333 0.019488046 -0.08966371
0.0051637627 0.01947069 -0.026768615 -0.08366392 0.09152236 0.25112998 0.018465431 -0.006963637
0.06119984 -0.029363059 -0.027330555 0.0031045552 -0.02641218 0.036274392 -0.008501209 -0.031318344
0.088720426 -0.05027457 0.08346714 -0.042018205 0.07695241 0.12220439 0.057739906 -0.08204603
0.0057126023 0.08431464 -0.07694944 0.04225126 0.15548173 0.16475059 -0.025222123 0.009306861
0.032903057 -0.18948548 -0.015691185 -0.028118363 0.043666154 -0.17852993 -0.031095656 -0.035116084
0.08153919 -0.14251575 -0.0067006047 0.030364387 0.07381418 -0.01154869 -0.023197735 0.03299733
0.05966298 -0.27923608 0.101895034 -0.20467624 -0.009058393 0.15888098 0.091532305 -0.14778855
-0.0139909135 0.0881754 0.006930464 0.01537421 -0.114710264 -0.010446363 -0.0384774 0.019042827
-0.0066636135 0.0768254 0.04486212 0.07108797 -0.18006171 0.065183654 0.08352254 0.07397233
-0.013914457 0.043628164 -0.0039969613 0.14177695 -0.21468423 0.09969129 -0.028355861 0.12902853
-0.032524265 -0.013949921 -0.046257596 -0.053930335 -0.18213633 0.0411384 -0.06806896 -0.06464304
0.02789007 -0.0066342074 0.08369629 -0.052397564 -0.06671903 0.087269925 0.043780137 0.0039472464
0.00615564 -0.0042915083 0.11811372 -0.08045504 -0.011954732 0.046329256 0.11081555 -0.074660875
0.045740083 0.10825162 -0.025767948 0.1174306 -0.23231149 -0.108709335 0.0010871539 0.10584223
-0.020123102 0.008443981 0.08850307 0.10849085 -0.15687434 -0.07842207 0.03569192 -0.0022419514

fc1.bias f4 [200]
00000000: 73bc 1ebe 5dda 92bc 2936 3e3e ac75 13be
00000010: 6429 50be d16b 15be d3fc 46be ba1b dabd
00000020: 3de1 04bd ff97 d5bd 3180 fc3d f6b3 b73d
00000030: fd9b 34bd 57c2 8b3c bbb0 783d d95f e23d
00000040: 705b bf3d 44c4 473d 6e65 1b3d a1bb 933d
00000050: 52c4 53be 2fe9 5fbd df3d dfbd 000d d93d
00000060: 2656 383e 7239 403d 98cc 3dbe 9a1f 013e
00000070: d59b 183e 611e 56bd 18e5 bc3d 0362 63bd
00000080: 9d3f ae3d 62b7 963d 397c f03d 1f98 bb3d
00000090: c2aa 493e a322 cc3c 1bfb 5fbc 3070 58bb
000000a0: b2b7 e73d 55bd 913e 0efc 933c d40f 6e3c
000000b0: 188d 18be abc6 3ebe 1c08 213e 360f 313e
000000c0: b97a be3c c113 1cbe 0cea a0bd 95e8 993d
000000d0: c918 693e e2b3 333e adf9 80bb cc53 8d3d
000000e0: f168 2fbe e8ab 98bb 3301 a5bd 1737 dbbb
000000f0: fefe b83c 6387 b5bd 281a 26be a62a 703d
00000100: bb76 433e bc9f 57bd 051c 1e3e 577d 0cbd
00000110: 0418 063e e1d1 af3a 4387 963d 46f4 cdbd
00000120: 26ca 49be 7025 5a3e 633e 5ebd 2b68 29be
00000130: 8a90 d8bd e26c 46be bfef 2e3d 4770 1bbd
00000140: 2bcf 69bd bdb3 9d3d f09d 5e3c 997c 823d
00000150: 7359 c03d 2a84 b7bd b9e7 19be a0ac 483c
00000160: d724 983c 6697 89bc cea6 49be 7ef4 283e
00000170: 27dd 32bc 7f4a dd3d 6ad6 563e 929c 9a3c
00000180: 546c a8bd a5dd 323b 32bd 19be d56b 463e
00000190: e5ef 503e c56f a2bb cfea 433d b4fc 193e
000001a0: 7525 72bd 2e4f 18bd 2f99 59bc 8442 1a3e
000001b0: 78fd cd3d 0a24 31be 6216 b23c b0a0 063e
000001c0: 7125 67bd 60b0 193e e6e3 0d3e c74f 953d
000001d0: af55 29be 37c4 0bbe a08d f63d 5557 2abe
000001e0: baf4 793c 11c6 32be 2c08 673d 6f88 d5bd
000001f0: b9e8 01be 1b6b e13d 3cc0 52bd 0e97 5d3e
00000200: 0eae 6b3c f73c fd3d 3eeb 503a 868d a8bb
00000210: 6fba a93d 057c 9abc 260c b03d b0ef 6f3d
00000220: ae3a 083d bc41 24be c83c a73d 0377 543e
00000230: 6b23 27bc 89f6 2a3e 7655 2e3c b7d5 b7bc
00000240: b3b4 653e 844e e8bd dd92 9ebb 85ca f33b
00000250: c0d6 8b3d df3f 0bbe 8d3c 7d3e 3abb 183e
00000260: b793 4a3d 9dd5 303e 38af 163d 9089 683e
00000270: 8f1b d53d 2f56 e7bd 5285 3b3e 1372 083e
00000280: 3c7d f8bd e0c4 bf3d 0980 c1ba 3f3e f2bd
00000290: 24e4 833c c2d7 103c b858 2a3e d769 78bc
000002a0: 52b6 3a3e 6abb 2d3e ef8a 453e 0e7a 843d
000002b0: 8e91 303e a87a 0dbe a65c 20be 73c9 06bd
000002c0: b78e abbc 5dd8 253e 8a89 0abe 9ce4 153e
000002d0: dbf6 093e 8ce3 30be 25e3 6e3e 258b 093e
000002e0: ec96 16be 6e20 4cbd c885 683d 0ae9 3abe
000002f0: 4582 cd3d 6c0e 03be 2bd0 6dbc d9ad 843d
00000300: 53b6 83bd 5cb4 1a3e 4828 0e3d 7443 3a3e
00000310: 3d85 97bd 7840 b3bd e2c9 37bd 4c64 253e
-0.15501575 -0.01792639 0.18575348 -0.14400357 -0.2032829 -0.1459191 -0.19432382 -0.1064982
-0.032441366 -0.104293816 0.12329138 0.08969872 -0.044094075 0.017060442 0.06071542 0.11053438
0.09343612 0.048771158 0.037938528 0.07213522 -0.20680359 -0.05466574 -0.10900473 0.10598183
0.18001613 0.046929784 -0.18535078 0.12609711 0.14903195 -0.052275065 0.09223384 -0.055513393
0.08508227 0.07359196 0.117424436 0.09159874 0.19694045 0.02491886 -0.013670708 -0.0033025853
0.11314334 0.2846476 0.018064525 0.014530141 -0.14897573 -0.18630473 0.1572575 0.17290959
0.023251878 -0.1524191 -0.07857141 0.075150646 0.22763361 0.17549089 -0.0039360137 0.069007486
-0.17129876 -0.0046591647 -0.08056869 -0.006689917 0.022582527 -0.088637136 -0.16220915 0.058634423
0.19088261 -0.05264257 0.15440376 -0.03429922 0.13095099 0.0013413989 0.07350018 -0.10056357
-0.1970602 0.21303344 -0.054258715 -0.16543643 -0.10574444 -0.19377473 0.04270911 -0.037948873
-0.057082336 0.07700298 0.01358746 0.06371421 0.09392061 -0.08960755 -0.15029801 0.012248188
0.018572254 -0.016795825 -0.19692537 0.16499516 -0.010916985 0.108052246 0.2098023 0.018873487
-0.08223787 0.0027292755 -0.15013579 0.19377072 0.20404013 -0.0049571716 0.047831353 0.15037805
-0.059117753 -0.037184887 -0.013281151 0.15064436 0.10058111 -0.17298904 0.021739189 0.13147235
-0.05643219 0.15008688 0.13856468 0.07290607 -0.16536592 -0.13649069 0.120387316 -0.16634877
0.015256101 -0.17458369 0.056404278 -0.10426413 -0.12686433 0.11006757 -0.05145286 0.21639654
0.01438476 0.12365144 0.0007969624 -0.005143824 0.082875125 -0.018857965 0.08596067 0.058578193
0.033259086 -0.160407 0.0816589 0.20748524 -0.010201315 0.16695608 0.010640493 -0.022440774
0.22432213 -0.11343101 -0.004839285 0.0074399137 0.0682807 -0.13598584 0.2473013 0.14915171
0.049457278 0.17268987 0.036788195 0.22708726 0.10405647 -0.11295735 0.18312576 0.13324766
-0.121332616 0.09363723 -0.0014762889 -0.11828279 0.016099997 0.008840503 0.16635406 -0.015161953
0.18233612 0.16966024 0.1929128 0.064685926 0.17243025 -0.13816321 -0.15660343 -0.03290696
-0.020942075 0.16195817 -0.1352903 0.14637989 0.13473074 -0.17274302 0.23328836 0.13431986
-0.1470601 -0.049835615 0.05676821 -0.1825296 0.100346126 -0.1279847 -0.014514963 0.06478471
-0.0643126 0.15107864 0.034706384 0.18189794 -0.0739846 -0.08752531 -0.044870265 0.16151541

fc2.weight f4 [150, 200]
00000000: 7e39 e53b 2ec2 17be da78 103d 8b59 cebc
00000010: b7d3 523e dc0b 43bd d85e f1bb fb54 70bd
00000020: 9f3f 46bc 89d7 29be 6640 d7bd e617 263c
00000030: 5908 5dbe 7c14 c5bd 8dee 9d3d 6dd8 ae3c
00000040: 67ae aebd d881 9b3c d4d5 5ebd b3cb ef3c
00000050: 143a 5fbd 83ce c13c 7e32 063e f081 bcbd
00000060: acd8 9cbc 8cf9 a13d 5b8f 123d 40fb 8bbd
00000070: 0d90 0ebe 3c74 ae3d 0998 c5bb e866 c8bb
00000080: 6d89 4c3e 7e94 30ba 7d72 2f3c c63c 3f3d
00000090: bb21 b73d 7c7a 15be 691f e9bc 4cfe 213d
000000a0: cd58 3fbe 9770 a83d 416b 32be ffba 1d3d
000000b0: c569 6bbe a819 1fbe db28 d53c e40c f63d
000000c0: eeaf a0bc d881 88be 1056 ebbd a1e5 3ebd
000000d0: 49bb 013d 95ac 3cbd 2b30 853c cd68 fd3d
000000e0: 7032 0cbe 69f0 3e3d 846e 52bd 9ea7 4bbc
000000f0: 8601 49be 4816 2ebd f52f 42bd 1cd3 67be
00000100: 801e 8b3d 1003 373d 331e 7dbd e7a1 db3d
00000110: 96ce 92bd 5e4d c33c 481b e43c ddfe 3bbe
00000120: 9a2f 8bbd 709c ccbd 5fae 8c3d 19e0 e5bd
00000130: 6eaa b83d 594d 75bd cd5d db3c 5714 0c3e
00000140: 812b 323e c656 613d 1bcb cbbc fbca 36bd
00000150: 9298 823d d34a f33c 8908 93bd d774 fcbd
00000160: be04 f8bc 9cb6 e43d 5b31 6bbb b61f 0c3c
00000170: 0d2c f0bc 4de8 eb3d 1b8a be3d f7e2 673d
00000180: 815f 393d 3c94 083d f045 1bbc d72c be3d
00000190: a6e8 d5bd 7cd2 4ebc 8ffb 0f3d cd6e 7abd
000001a0: 5ae5 4e3b 4a5b 7f3d 6463 cdbd cfa6 ac3d
000001b0: 7b3d 043e 0848 07be 3ef6 a33d 7420 b63d
000001c0: 5fb4 c53d 71a3 a73d 9d4c 013e 7629 113e
000001d0: 249b 873d cd46 f1bc 4cf2 2d3e 59b1 53bd
000001e0: 7195 35bd 21a1 a8bd 2b7d 15be e38c ddbd
000001f0: 421c 583c 97a7 fbbd e57e 8c3d 3891 7cbd
00000200: ecaa 3abd 0f6b 573b f161 e33d f546 b0bd
00000210: 477a 1e3d c625 f5bc 8744 34bd 4aab aa3c
00000220: 7ea2 3a3d 641d 503d e091 3cbe 4eda bf3d
00000230: b1cd 363d 232a 75be bce9 563e d4c6 fb3c
00000240: e07d fb3d 6e41 90be f1ea 023d 36f9 4bbe
00000250: 29ee 51be 694e 283e f0dc a0bd 936f 883d
00000260: e6a0 af3c ebc2 3dbd 72a3 bcbd 829a 283e
00000270: 9f7d a23d ce21 c73c 3f8c 0abe fe06 30be
00000280: 7462 863d fe3b 4abe 6797 be3c d0b4 e83c
00000290: ff69 d4bd 6786 87bd 783f 55bd e2c4 a6bb
000002a0: a0ac 043d 955e 853c 34af 093e 49fc 23bd
000002b0: d092 dc3d d258 8f3a ce98 41be f322 d9bd
000002c0: 2fcf d8bd a299 9e3d de96 d0bd 5958 da3d
000002d0: f503 1a3c c4d8 433e c7d8 043e 0a46 7cbd
000002e0: 6129 1a3e 5de8 893b 1019 3c3b 8ebb bc3d
000002f0: d005 413c af40 1cbe ae78 2b3c a988 e7bd
00000300: 2269 af3d 6c41 ab3d 9d4c ca3d 1a4c a4bd
00000310: 019d 9f3b b079 843c b998 86bd d8a9 903d
00000320: 2f3b e83d ea71 0cbd 2fd1 153e 9e39 1a3e
00000330: 6684 273d cdd7 e13d 40a4 823d 8f93 a5bd
00000340: 76bc 933d c06a 1fbe 1f41 dbbd 44ac 083b
00000350: b02e a5bc 73e3 a4bd e175 b73c 5d37 7e3c
00000360: d43a 1d3d 4434 1bbd 620e 5abe 9c1c e33d
00000370: 092c 283d aaf3 383d 4b3d 24bd 3cda e6bd
00000380: 87bd 023e 8cf9 323d 4aca f63a 0cca 5cbd
00000390: 39bb d6bd 5d3a 1d3d 0296 ccbd 6ae5 e1bd
000003a0: 0f6a c13c ed94 053e 34e9 113a 853a 213d
000003b0: 7769 1c3e 6235 bd3c e476 293d a552 5e3d
000003c0: 5ac9 febd 8743 38bd e158 28be 082f d03d
000003d0: fb43 69bd b9b8 b5bd ec56 9b3b 53ed a3bd
000003e0: 817d 1fbe 4001 71be 7a96 a13d 1f1d 68be
000003f0: 4f8f c93d 86ef 023e 6716 a93c b5bb c23d
0.006995379 -0.14820167 0.035271503 -0.025189182 0.20588575 -0.04761873 -0.0073660426 -0.058674794
-0.012100129 -0.16586126 -0.1051033 0.010137534 -0.21585216 -0.09623048 0.077115156 0.021343434
-0.08529358 0.018982813 -0.05440314 0.029271936 -0.054498747 0.023658043 0.13105199 -0.09204471
-0.019146286 0.079089254 0.035781246 -0.068350315 -0.13922139 0.08518264 -0.006030087 -0.006115783
0.19974299 -0.0006735994 0.0107084485 0.046688817 0.089419805 -0.14597505 -0.02845736 0.039549157
-0.18686219 0.082246 -0.17423727 0.03850841 -0.22989567 -0.15537131 0.026020458 0.120141774
-0.01961514 -0.26661563 -0.114910245 -0.04660571 0.03167275 -0.046063025 0.01625832 0.12373505
-0.13691115 0.04661599 -0.051374927 -0.0124301 -0.19629487 -0.042501718 -0.047409017 -0.22639126
0.06792927 0.044680655 -0.06179638 0.1072424 -0.071683094 0.023840602 0.02784504 -0.18358941
-0.06796189 -0.099907756 0.06869196 -0.11224384 0.09016882 -0.059888218 0.026778126 0.13679634
0.17399408 0.055014394 -0.024877122 -0.04462717 0.06376757 0.029698765 -0.07179362 -0.12326973
-0.030275699 0.111676425 -0.0035887572 0.008552482 -0.02931788 0.11518917 0.09303685 0.056612935
0.045257095 0.033344492 -0.009477124 0.09285896 -0.10444765 -0.012623426 0.035152014 -0.061140824
0.003156981 0.06234292 -0.10028723 0.08430254 0.12914078 -0.13211071 0.08005951 0.08892909
0.09653544 0.08185471 0.12626882 0.14175972 0.066213876 -0.029452706 0.1698696 -0.051682804
-0.04433197 -0.08233858 -0.14598529 -0.10817888 0.013190331 -0.122878246 0.06860141 -0.06166193
-0.04557316 0.0032870208 0.11102665 -0.08607284 0.03869083 -0.029925238 -0.044010665 0.02083363
0.04556512 0.05080928 -0.18415022 0.0936781 0.044629756 -0.23941855 0.209876 0.030734457
0.12279868 -0.2817492 0.03196234 -0.19919285 -0.20501007 0.16436161 -0.078546405 0.06661906
0.021439027 -0.046328466 -0.09210862 0.1646519 0.079341166 0.024308112 -0.13530062 -0.17190167
0.06561747 -0.19749448 0.023265554 0.02840653 -0.1037178 -0.06617432 -0.05206248 -0.005089388
0.03239119 0.016280452 0.13445741 -0.04003552 0.1077019 0.0010936505 -0.18905947 -0.10602369
-0.10586392 0.07744147 -0.10185026 0.10661382 0.0094003575 0.19125658 0.12973319 -0.061590232
0.15054847 0.004208608 0.0028701462 0.09215461 0.011781171 -0.1525905 0.010465784 -0.11305363
0.08564974 0.083620876 0.09877894 -0.08022328 0.0048710112 0.016171306 -0.06572098 0.07063645
0.113394134 -0.034288324 0.14630578 0.15061042 0.04089775 0.11027489 0.063789845 -0.08084785
0.072136804 -0.15568066 -0.1070578 0.0020854631 -0.020163864 -0.08051195 0.022395076 0.015516129
0.03838618 -0.03789164 -0.21294549 0.11089441 0.04105762 0.04515425 -0.040097516 -0.11272094
0.12767611 0.043695018 0.0018828597 -0.053903624 -0.10484929 0.038385738 -0.09989549 -0.110300854
0.023610143 0.13045092 0.0005566061 0.03936245 0.15274607 0.023096744 0.04137315 0.054278035
-0.124407485 -0.044986274 -0.16440155 0.101652205 -0.056949597 -0.08873124 0.0047405865 -0.080042504
-0.1557522 -0.23535633 0.07890029 -0.22667359 0.09841787 0.12786683 0.020640565 0.095084585

fc2.bias f4 [150]
00000000: 6374 a2bb e464 79bc c957 933d 42e0 283d
00000010: c0d9 13bd 6342 c33d 69b7 283a 8e98 a6bc
00000020: 4025 5c3b 3871 8c3c 2f6e 7e3d a05b 8b3d
00000030: 387b 943d 0f93 923d d905 a2bc c729 42bc
00000040: 92c9 9cbc 9f0b b23d 0504 19bd 837f 81bb
00000050: 34d2 3d3d d88a a7b9 3661 633d 6be2 c2bc
00000060: 156d 663d e0d1 a33d f3ad 2d3c d78f 253c
00000070: 99e7 343d c66a 93bd 6179 6cbd 18dd b1bc
00000080: 8961 593c 0ee4 15bd c3c0 283d 382c b03b
00000090: 7b15 273d 1ca5 17bd 2008 053d 78f6 98bb
000000a0: 84e2 d33d 18a8 8c3d 9d97 1b3c 2b91 b0bc
000000b0: 8e59 9f3b a2c5 a13c a5d5 02bc c59f 813d
000000c0: becd b6bd e7c6 72bd c574 4bbd 6fdc 733d
000000d0: 17a6 33bd 15fd 2dbd d628 f33c 122f afbd
000000e0: 65db bc3c 7f2b 913d 61f8 26bb 98b3 16bd
000000f0: 1e20 17bc 4853 85bc a213 27bd d003 a2bd
00000100: 089c 843d fdbb 96ba 5434 28bd 86cb b9bc
00000110: 3252 b4bc e181 39bc 817b a03d 9585 533d
00000120: 1109 553c a0b3 87bc 0c24 5dbc 2033 16bd
00000130: ad87 1b3c bc24 a43c d8f7 2f3d 1401 263c
00000140: 7d68 c0bc d33e a53d f673 39bd f543 553d
00000150: 0636 413d 09f8 dcbc 0a52 893d 9b41 a33d
00000160: 5aa6 bc3d 6647 c73c 3fec 8c3d dfbe 963d
00000170: ad91 13bd 62e3 a0bd 239f a03d f392 7b3d
00000180: ef7e a03d 1119 453d 6e42 d93c 9654 1dbd
00000190: 57e5 943b ad34 1e3c f60c fa3c c393 383d
000001a0: 1780 0fbd 5ccb 483d 230b 693d a2d9 943d
000001b0: bd9d 113d 42f0 e5bb 8982 ddbb db05 e9bb
000001c0: 17a5 d13c 85a9 b33d 0a02 283d 7697 073c
000001d0: edbb 4ebc 354c 5e3c a66d 6fbd 2d6e 30bd
000001e0: 6bad bc3d 5576 d43d acb1 593d d323 de3c
000001f0: 8b85 273d 3b0b dc3d 10d3 1a3c ba12 e43c
00000200: f5ca 0e3c 123a 4bbd 9655 c93d 6246 0f3d
00000210: aed3 663d 0cde 04bc f774 02bc 07f0 aa3d
00000220: b062 463d bc4a 2ebd dd95 523d 2911 24bd
00000230: a665 093e 5977 59bd 44f6 7abc ca83 293d
00000240: 6a0d a13c e075 863d d3cb c73b d6de a53a
00000250: 71cb 353d 9bc6 b63d
-0.004957722 -0.015221808 0.07194478 0.041229494 -0.036096334 0.09534147 0.00064360216 -0.020336416
0.0033591539 0.01714383 0.062116798 0.068045855 0.072500646 0.071569555 -0.019778179 -0.011850781
-0.019139085 0.08693623 -0.03735735 -0.003951968 0.046343043 -0.0003195617 0.05551263 -0.023789605
0.056256372 0.07999015 0.010600555 0.010105095 0.04416618 -0.071981 -0.057732943 -0.021711871
0.013267883 -0.036594443 0.041199457 0.005376365 0.04079197 -0.037022695 0.03247845 -0.0046680532
0.10345939 0.06867999 0.009496597 -0.021553596 0.0048629707 0.019747559 -0.007985507 0.06329302
-0.08925961 -0.05927172 -0.049671907 0.059536394 -0.043859567 -0.042477686 0.029682558 -0.085539
0.023053834 0.07088374 -0.0025477635 -0.036792368 -0.009223966 -0.016275063 -0.040790208 -0.079108834
0.06475073 -0.0011500117 -0.04106553 -0.022680055 -0.02201185 -0.011322469 0.078360565 0.051641066
0.01300265 -0.016565144 -0.013497364 -0.03666985 0.009492797 0.020037048 0.04296097 0.010132093
-0.023487324 0.080686234 -0.045276605 0.052066762 0.04717066 -0.026973741 0.06705101 0.079714976
0.092114165 0.024326038 0.06880998 0.073606245 -0.0360276 -0.0785587 0.07842853 0.06141944
0.07836711 0.04811961 0.026520934 -0.038410746 0.004543941 0.009656114 0.030523758 0.04506279
-0.035034265 0.049022064 0.056895386 0.07268073 0.03555082 -0.0070171664 -0.006759946 -0.0071112937
0.025591416 0.08772568 0.04101757 0.008275857 -0.012618047 0.013567974 -0.05845418 -0.04307382
0.09212764 0.103741325 0.053147957 0.027116692 0.04089884 0.107443295 0.009449735 0.02784096
0.008715381 -0.049615927 0.09830777 0.03497923 0.056354217 -0.008109581 -0.007962457 0.08346563
0.04843396 -0.04255174 0.051412452 -0.040055428 0.13417682 -0.053092334 -0.015317503 0.04138545
0.019659717 0.065654516 0.006097296 0.0012654911 0.04438347 0.089246

fc3.weight f4 [2, 150]
00000000: 5f9d 45be 9260 2abe b277 09be 70c6 74be
00000010: 9e6f 0bbe d1bd fe3d 77a3 693d 3882 d3bd
00000020: fac3 893c 0873 85be f21b 253e 1c88 17be
00000030: a691 b23d a028 c3bc 4ff0 d2be b06f 00be
00000040: 7c00 873b d474 9c3e 065c 96bd 2875 153e
00000050: 3483 eabd f4ac b83d edc2 02be e7f2 8c3d
00000060: 7140 f13d 3ba0 2bbe c0f8 8739 8b2b 94bb
00000070: 9fb0 a33b e916 4fbd 541d b8bd 1984 503d
00000080: 1a71 8bbd ee22 053e 5eda 153e 5bb8 0ebe
00000090: 2bd1 cdbd c09b f7bd 9d5b 43be e223 f43d
000000a0: 5545 1d3d e547 b5bd 8a7e d33c c763 133e
000000b0: 1b33 003e 6577 90be 2bc7 583d 1d4b debd
000000c0: a5ce 1dbe bdae b4bd 094f 11be fcc1 a4bd
000000d0: 6683 d33d fbf1 1bbc 16ce debd 851f 763e
000000e0: 1e4a 43be 25b2 d03c 4acb 153e 4966 7abe
000000f0: 75fd 443e e3b4 f53d 91af f9bd 64ea c23d
00000100: 31e3 7fbe 3cea 95bd 7d30 ccbd edb8 dc3d
00000110: 67e2 1a3e 985d 15be 5ef4 48be 3434 993d
00000120: 636c 0a3e fbda 1c3d 5f3a bf3d 8761 5fbd
00000130: a05b 91bd 857f 7abd 6094 e53e e5e7 2dbe
00000140: d302 1d3d ed4c 81bc 688e 1ebd cfd7 e83d
00000150: 522d 2b3d fdee 0c3c 8fcc 763d 6c93 39bd
00000160: 7237 5e3c 6f17 6c3d cb15 1fbe d4fb 85bd
00000170: 0fb8 78be 01b0 2e3e 18ef 91be e97e 8a3b
00000180: 8070 ecbd 9b6e 433d a7f5 313d d838 54bd
00000190: ba1b d73d b33f a3be cf82 f0bb bfcf d33d
000001a0: df80 093e a94e 2ebd 0274 89bd 0089 8c3d
000001b0: ebaa 963d ae67 55bd 0e85 023e 5ee1 1a3d
000001c0: 1681 90be bf24 6f3c 73a4 f83c 307a 2f3e
000001d0: 79e6 04be 7dda aabd 2085 503d 6eeb 8ebc
000001e0: 6150 fdbd ee11 f33d 071d 1bbd 9398 e3bd
000001f0: e8b3 123e b2d8 d93b 40f2 1fbe c6c7 eb3d
00000200: b196 863d 360f 24be cf69 9e3d f7cb 9f3c
00000210: 7c11 283e fbf9 c8bd 4411 133e c626 0c3d
00000220: ae54 1ebe 5703 93bd 7220 9e3d 7173 903d
00000230: ea0b 9c3d ab91 5dbe 1ded 0bbc 5e7b 4a3c
00000240: 46e1 c8bd cfff 05be 4b74 0c3e f352 873c
00000250: 7b1d 80bd 0cea a9bd 8320 6dbe 61cf 02be
00000260: e926 09bd b154 29bd ff18 203d 303d 3cbe
00000270: 7bdb 173e 82dc 8dbc 9ccd b4be 031d 993d
00000280: 3330 83bd fb2b d43d 4624 81bb 60e3 96be
00000290: 9750 2b3e b80e c33c 722f aa3d 5766 e03d
000002a0: 28b7 c03d 938e 83be e920 0abe b660 90be
000002b0: fd47 1cbd 20df 8fbc b82a 4ebe 48f8 1fbf
000002c0: d9da ef3d 26cb b83d 9b4c ad3d 2dff 82be
000002d0: 9787 523e 0720 3ebd 02d5 443d 746d cfbb
000002e0: 6637 b2bd 6ab2 1bbc 1938 563d 9fb0 953d
000002f0: abdd 63bc 1d03 89bb 0246 ae3d bac5 f43c
00000300: af76 fbbe 6879 17bd 5529 6bbe f22e 8e3d
00000310: b914 433d 6c22 b73c a748 c83d 9224 89bd
00000320: 40f5 b8bd e014 25be 04b9 163d 02de 9abe
00000330: bd1d 09be 54a0 d6bd 50cb 5c3d 7b0f cd3d
00000340: 39b2 7ebe e470 26be 9687 90be 98ce 86bd
00000350: f6b2 f1bd 1dd4 b73a 7aa5 553e b284 c7bd
00000360: cbca 0abe 055c 4bbd 31d9 d2bc fe17 283c
00000370: d0c0 b9bd 8382 683d dce5 9bbd 90c3 a73d
00000380: 4f4d 8abd 66b3 00be d162 66bc 0e91 e63d
00000390: f8a1 c73e 3f34 1bbd 3504 d93d 0b43 b4be
000003a0: 79a1 2fbe 9957 90be 9700 45bd d4ef 95be
000003b0: 044d 1ebd 8e08 c1bd 44b1 e83d 64e0 e63d
000003c0: 7672 de3d e75b ccbd 4bb9 1c3e 5b26 8dbe
000003d0: 798a e23d 032c e93d e5fa 5e3d 1efe 39ba
000003e0: a4e0 8ebd 0a36 013d 3fa7 7cbc 526c a9be
000003f0: f943 e13d 19aa fd3b 87bb 29be 764a 11bc
-0.19298314 -0.16638401 -0.13424566 -0.23903823 -0.13616797 0.12438548 0.057040658 -0.10327572
0.016817082 -0.26064324 0.16123942 -0.14798015 0.087191865 -0.023823082 -0.41198966 -0.12542605
0.004119931 0.30557883 -0.07341771 0.14595473 -0.11450806 0.09017363 -0.12769671 0.068822674
0.11779869 -0.16760342 0.0002593454 -0.0045217923 0.00499542 -0.05055896 -0.08989969 0.05090723
-0.06808682 0.13001606 0.14634082 -0.13937514 -0.10049661 -0.12090254 -0.19077916 0.119209066
0.0383962 -0.088516034 0.025817174 0.14393531 0.12519495 -0.2821609 0.052924316 -0.108541705
-0.1541086 -0.08822391 -0.14190306 -0.08044812 0.10327797 -0.009518142 -0.108791515 0.24035461
-0.19071242 0.025475571 0.1462833 -0.24453081 0.19237311 0.11997392 -0.1219169 0.09517363
-0.2498901 -0.07320067 -0.09970186 0.10777459 0.15125428 -0.14586484 -0.19624469 0.0748066
0.13517909 0.038294774 0.09337305 -0.05453637 -0.07097554 -0.06115677 0.44839764 -0.16982992
0.03833277 -0.015783751 -0.038710028 0.11369287 0.041791268 0.008601901 0.060253676 -0.045306608
0.013563024 0.057639536 -0.15535657 -0.06542173 -0.24288963 0.17059328 -0.28502727 0.0042265547
-0.11544895 0.047712903 0.043447163 -0.051812023 0.10503335 -0.31884536 -0.0073398123 0.10342359
0.13428067 -0.042555485 -0.0671158 0.06862068 0.07356819 -0.05210083 0.12746069 0.037812583
-0.28223485 0.014596163 0.030351853 0.17136455 -0.12978543 -0.083424546 0.050908208 -0.017446246
-0.12368847 0.11868654 -0.03786948 -0.111130856 0.14326441 0.0066481465 -0.15619755 0.11512713
0.06571711 -0.16021428 0.07735025 0.019506438 0.1641292 -0.09813305 0.14362055 0.034216665
-0.1546199 -0.071783714 0.07721032 0.07053269 0.0761946 -0.21637599 -0.008540419 0.012358515
-0.098085925 -0.13085864 0.13716237 0.016519045 -0.06255623 -0.08296594 -0.23156933 -0.12774421
-0.033484373 -0.041340534 0.039086338 -0.18382716 0.14829819 -0.01731706 -0.35313118 0.07476237
-0.06405678 0.10359951 -0.0039410917 -0.29470348 0.16729961 0.02381073 0.08309831 0.1095702
0.09409934 -0.25694713 -0.13489117 -0.28198785 -0.03815459 -0.017562449 -0.20133483 -0.6248822
0.11711664 0.090231225 0.08461877 -0.2558531 0.20559536 -0.046417262 0.048054703 -0.0063301865
-0.08701973 -0.009502986 0.052299593 0.073090784 -0.01390783 -0.0041812793 0.08509447 0.02987944
-0.49113986 -0.036981016 -0.22964986 0.06942548 0.047627185 0.02235528 0.09779482 -0.06696428
-0.09031153 -0.16121244 0.03679754 -0.30247504 -0.1339025 -0.10479799 0.05390483 0.10012718
-0.24872674 -0.16254002 -0.28228444 -0.065823734 -0.11801712 0.0014025007 0.20863906 -0.097421065
-0.13553922 -0.049648304 -0.02573833 0.010259626 -0.09069979 0.05676509 -0.076122016 0.081915975
-0.06753027 -0.12568435 -0.014061646 0.11258136 0.3899076 -0.037891623 0.105965056 -0.352074
-0.1715144 -0.28191832 -0.048096266 -0.29284537 -0.038647667 -0.0942546 0.11361936 0.11273268
0.108616754 -0.099784665 0.15305059 -0.27568325 0.11061568 0.11385348 0.05443849 -0.00070950564
-0.069764405 0.031545676 -0.015420734 -0.33090454 0.10999293 0.0077412245 -0.16575442 -0.0088678505

fc3.bias f4 [2]
00000000: f27e 4b3d 23a7 ef3d
0.04968161 0.11701801
