checkpoint_critic0.pth (torch_old, 143415 bytes, 5 tensors)

fcs1.weight f4 [200, 24]
00000000: 9931 383c 8e1e a03c 03e2 b0bc b8ac 803c
00000010: 56c2 483d d06b 663d 16e7 f439 7ae5 d0bb
00000020: ceea 203d 9a87 973c 6769 33bd 3a4f 04bd
00000030: 5932 653d 8dfd 9fbd 99db 72bc 92aa a53a
00000040: d8f3 973d 6ee4 4dbd a8d6 36bd 2936 dabc
00000050: dda2 eebd 1015 d43b f81a 7a3c a204 36bc
00000060: 5c53 0dbd 56a2 1bbd e84a 2bbc 6be1 283c
00000070: 00e6 e93b 2a83 21bd f046 3e3c c3af 993c
00000080: 8d7d 443d e226 503c 9bc1 023d 8105 503d
00000090: 5431 5fbd 266f d53d 495c 07bd 5fc6 02bd
000000a0: 03c0 8c3d 1d0e c63d 832d 8d3c d2bb e43c
000000b0: 89a5 8b3d 2fe4 623e 6a50 50bc 6780 b73d
000000c0: 0060 48bd 4130 b13d 06f2 0abd b823 9dbc
000000d0: d7eb 8e3d 4180 be3d ea06 173d c02b afbc
000000e0: ae3a f93c 24d3 2a3e b185 b43c d4c6 78bb
000000f0: 58e3 66bb f51c 14bd 5793 f2bb 815a 023b
00000100: e3de 29bd 5f36 cc3d 2fd5 0b3c 55a1 b6bc
00000110: c148 98bd d93d b0be 67c4 fe3b c5e5 24bd
00000120: 00ec d73c 4901 1dbd 07c6 92bb 5575 493d
00000130: 4da8 60bc 8f78 b63b 7d0f 06bb 8935 7f3c
00000140: 74bc 7438 8194 6abc de42 653d 9fb7 3f3c
00000150: 32a1 c63b 3c0d 293e a095 0abd d232 8cba
00000160: 4188 1abd 2482 a83d 1eb4 e4bc 8bcb c93c
00000170: c502 2c3e 4ddc 0bbe 94d1 423d a75e 4cbd
00000180: 5047 5bbd a438 8c3d d67a ebba e8d0 d3bc
00000190: b806 f5bd 442c c13c b6d3 df3c a646 98bc
000001a0: 18da 13bd 3856 a03b 71bf 02bd 495b 6dbd
000001b0: 2c63 d2bb dcd7 833d dd0e 513c 58c7 7c3d
000001c0: bb95 ccbc f998 70bd bddd b5bc b44a a73c
000001d0: f606 c63d c9a4 86bc ab23 96bc b3d1 8abb
000001e0: daf6 8cbd 6a33 cf3c 86ac a2bb b645 a2bb
000001f0: 1067 793c cf4e 06bd 9e9f c63b 30b1 c4bb
00000200: 1b02 853c 8678 7d3d 4110 143c 0b80 403d
00000210: af97 eabb d115 943d 45b3 d2bb 7827 ab3b
00000220: 9a03 9c3d 01fc 933b fbcf 8f3c 6860 113d
00000230: 8d8c 5abe 688f 8fbb 432a a2bc 5bdc e5bc
00000240: 1d18 b83b 94bf c8bd ad91 653d fb64 33bd
00000250: 4aa1 123e 6a4c 203c b9a2 77bd 7fd1 723d
00000260: 859e a1bc 48cd 0c3c 49fd 4fbc f17f ad3d
00000270: 061f e1bb 73eb 933d f1a8 b33c b7b6 3b3d
00000280: ee20 c3bd 704e 27bd f187 e23c ae88 8cbd
00000290: 2137 fc3a 0e1c 3c3e 2c3e 72bc ad82 6dbd
000002a0: 8013 3fba 45a8 073d 828a 05bd fe5c 6c3c
000002b0: 60cf 4e3d 67fc 2d3d 74c9 043d d2e8 cbbc
000002c0: 4fc9 45bd 1bd4 74bd b9d0 63bc b190 e63c
000002d0: 5bbd 30bd 1300 403a 50d8 c8bb e9b9 d23c
000002e0: 323c 613d 579f e53c ab82 dabc b78c 393d
000002f0: 086a b2bd 3521 1dbe 5337 073d e1d9 7bbd
00000300: 4fe8 17bd 5c11 003d 2864 483d bd02 40bd
00000310: 10cc b9bd 265e 333c a434 61bd 5007 823b
00000320: ffe5 f03c b0fc 5dbd 06be d1bc cfe0 2e3c
00000330: 1515 0e3d a45f fd3d e504 78bc adb3 db3c
00000340: 7167 0d3d f92a 47bd cf93 5fbd ffd8 bb3a
00000350: 0106 013e 112d 9abd c95f 303d 6b40 ee3a
00000360: 6240 f23c 10f3 d63d 3de3 b4bc fb71 283d
00000370: f176 e2bd a396 863d c19b a03c 9d5f 15bd
00000380: 7b2d dbbc e5ee 123e ef1e 0c3d cb50 5bba
00000390: a31a 5fbd 6e1d ca3c 7e2b 57bc 900e f13c
000003a0: 2a11 463c 870a 1f3e 5f0e eb3c 792e 8cbc
000003b0: 87b3 b63d c20a fbbd 6a71 0dbd be7f 24bd
000003c0: 643e c03c e901 4bbd d0e9 e6bc a50c 8fbc
000003d0: 4974 d03d 6c54 25bc 66e7 e53c d8e5 423c
000003e0: a55e 0cbd 336e c1bd 93d7 5b3c e576 56bc
000003f0: 57cd 35bd f370 c93c 91c7 4bbc f5e7 cabc
0.011242294 0.01954582 -0.021592146 0.015707359 0.04901346 0.05625516 0.0004671148 -0.006375012
0.039286427 0.018497277 -0.04380169 -0.03230212 0.05595622 -0.07812033 -0.014822864 0.0012639335
0.074195564 -0.050266676 -0.044638306 -0.026637154 -0.116521575 0.0064722374 0.015265219 -0.011109503
-0.034503326 -0.037996612 -0.010454871 0.01030765 0.007138014 -0.03943173 0.0116135925 0.018760568
0.047971297 0.012704583 0.031922918 0.0507865 -0.054490402 0.104215905 -0.033046994 -0.031927463
0.06872561 0.09670661 0.017233616 0.027921591 0.06818683 0.22157358 -0.012714485 0.08960038
-0.048919678 0.08651782 -0.033922218 -0.019182071 0.06978577 0.09301806 0.03687183 -0.021383166
0.030423488 0.16682106 0.022036405 -0.0037960308 -0.0035230722 -0.036160428 -0.007402818 0.001989037
-0.041472327 0.09971308 0.008534714 -0.022293726 -0.07435752 -0.34422186 0.007774878 -0.040258188
0.02635765 -0.038331304 -0.004479173 0.049184162 -0.013712001 0.005568571 -0.002045601 0.015576729
5.8349644e-05 -0.014317633 0.055971973 0.0117014935 0.0060616964 0.16508955 -0.0338341 -0.0010696298
-0.037727598 0.08227947 -0.027917918 0.02463319 0.16797931 -0.13658257 0.04756315 -0.049894955
-0.053534806 0.06846741 -0.0017965685 -0.02585645 -0.11964172 0.023580678 0.027322631 -0.018588375
-0.036096662 0.0048930906 -0.031920854 -0.057948384 -0.0064205136 0.06437656 0.012759891 0.061713547
-0.02497374 -0.058739636 -0.02220046 0.020421363 0.096692964 -0.016435998 -0.018327555 -0.004236424
-0.06883021 0.02529307 -0.004964414 -0.004952158 0.015222326 -0.03279 0.0060615083 -0.0060025677
0.016236356 0.06188252 0.009037078 0.04699711 -0.0071591954 0.07230724 -0.006430062 0.005223211
0.076178744 0.004516125 0.017555228 0.03549233 -0.21342678 -0.004381109 -0.019795543 -0.028059175
0.005618109 -0.09802166 0.05604713 -0.043797474 0.1431934 0.0097838435 -0.06045792 0.059281822
-0.019728908 0.008593865 -0.012694665 0.084716685 -0.0068701534 0.07222643 0.021931143 0.045828547
-0.09527765 -0.04084629 0.027652713 -0.06862007 0.0019242504 0.18370077 -0.014785331 -0.05798595
-0.00072889775 0.03311946 -0.032602794 0.014426468 0.050490737 0.042477038 0.032418683 -0.02489129
-0.048287686 -0.059772592 -0.013904744 0.028145166 -0.043149333 0.000732423 -0.006129302 0.025723414
0.054989047 0.02803008 -0.026673635 0.04530021 -0.0871163 -0.15344699 0.033011746 -0.061487082
-0.03708678 0.031266555 0.04892364 -0.04687761 -0.09072125 0.01094774 -0.054981843 0.003968157
0.029406546 -0.05419606 -0.025603306 0.010673716 0.034688074 0.123717576 -0.015137886 0.026819075
0.034522478 -0.048624966 -0.05458432 0.0014331638 0.12599947 -0.07528127 0.043060098 0.0018177157
0.029571716 0.10495579 -0.022081012 0.041124325 -0.110578425 0.065717004 0.01960552 -0.036468137
-0.026755085 0.14348944 0.034209188 -0.0008366226 -0.054468762 0.024672236 -0.013132928 0.02942589
0.012089053 0.1553136 0.028693376 -0.017112004 0.08920961 -0.12257911 -0.03453199 -0.040160887
0.02346725 -0.04956237 -0.028187662 -0.017462084 0.1017843 -0.0100909285 0.028064441 0.011895619
-0.034269948 -0.09444847 0.013418096 -0.01308987 -0.04438528 0.024589991 -0.012437717 -0.024768809

fcs1.bias f4 [200]
00000000: f3e2 2abe 3df7 45be 1d15 823e 1a5d 5dbe
00000010: a5e6 2dbe 7840 1dbe 39b3 80be bee9 eebd
00000020: 6942 9fbd 7deb 86bd 8ac5 903d d50c 813d
00000030: 58d4 93bd 4c45 e53b ab1d 3a3e 84e0 3a3e
00000040: 11e6 e83d 4100 dabd cd72 90bd 7996 ff3c
00000050: 7a84 6abe b22b cabd 4a1b 19be 389f f63d
00000060: 1a93 373e c592 193c 0208 12be aead 593d
00000070: 6f5a d73d 2e02 38be 4436 c93d 84bd 443d
00000080: 0a23 263e deb9 4c3d 61e1 0e3e 84c4 4f3e
00000090: 4624 093e 5d05 d33d 342f 413d 0b56 753d
000000a0: 3fd4 0e3e 48e6 633e b6b6 31bd 198b 9eba
000000b0: 4751 9bbd 3d9e 30be 0b46 f53c c9db 6d3e
000000c0: c908 253d 098c 5fbc 5d5c 923b c91d 473e
000000d0: 9341 513e 0a63 573e 440d a23d f442 103e
000000e0: cbc3 07be fdaf dfbd 6959 513d 75a1 1b3d
000000f0: 4307 163d 103c b8bd afe1 e1bd 1d20 243e
00000100: 88be 593e 2306 633d 0052 603e 31d1 6d3d
00000110: f9cf 833e e82a b8bd b581 e53d b828 2fbe
00000120: 05bc 78be 7c89 453e 703e 0fbd 0680 74be
00000130: 5d79 a4bd fbc2 1fbe b18d 92bd 0d67 d1bd
00000140: 229f 8fbc 204c dc3d e4e2 84bc 1d96 b9bc
00000150: a450 a63d 535c 50be 62f4 15be 91dc 20bd
00000160: 7a03 a93d 137a b4bc 37f1 21be e93a 413e
00000170: 163b b8bc 8449 ca3d 3e9e 5d3e e165 7cbd
00000180: 7962 06be 00eb 203d e013 12be b8f0 0b3e
00000190: c88a 693e 5e6c 12be e6dc c53d 1428 903d
000001a0: a1e1 49be e82e a8bd 3d97 13bc b8b0 c13d
000001b0: e10e d3bc 3cae 67be a5b3 17be 5a14 8a3d
000001c0: f8f2 ffbd c4b8 013e 9447 1abd a94e fcbb
000001d0: c5b7 67be ed06 19be eeac 143d edac 22be
000001e0: 6936 8c3d 3d33 31be f6b3 f83d 56af d3bd
000001f0: 5e34 0fbe 0c37 213e b51d 69bd f9ae 693e
00000200: 6181 9ebd 112a 193d ca52 95bd 236e fd3c
00000210: ba71 c93d 54ab 92bd 66e1 ca3d 3d6d bc3d
00000220: 5ab2 cb3b cab0 3cbe 27d1 a73d 17b4 473e
00000230: 12d8 a8bc f165 443e 5807 83be 9105 2c3b
00000240: 0b7d 0a3e 80ff 263d ac83 36bd 17de 4bbd
00000250: fb72 c93d 8849 74be a2e5 133e f269 a93d
00000260: 0d70 643d 8223 4f3e 4e47 8b3c c6c9 133e
00000270: 0538 513d b21b 4cbe 78a3 5a3e 49df 173d
00000280: 6b8b 40be 4f0e 273e de04 65bd aa65 36be
00000290: c1ef 5e3d 2cf6 12be c748 663e dcbe b636
000002a0: 05c7 ff3d e942 e93d 7737 353e aed1 543e
000002b0: f0ca 803e e2b9 7cbe 62dd 4abe 7e68 4dbd
000002c0: 417c 1d3d 58ee 013e 5e57 34be aed0 813e
000002d0: ae03 61bd 1397 7ebe be25 813e 4f89 4c3c
000002e0: 5356 1fbe 637a 1abe a0b9 62bd c745 49be
000002f0: cd59 7c3d 0de5 55be 03d8 24be 0ddb eb3c
00000300: a796 11be 7290 d93d c3d7 70bd 006b 333e
00000310: b6ee 513c e053 33be 8d6a c2bd 4ee1 4c3e
-0.16688137 -0.19332595 0.25406733 -0.21617547 -0.16982515 -0.15356624 -0.25136736 -0.116656765
-0.077763386 -0.065878846 0.070689276 0.06301276 -0.07218236 0.006996786 0.1817538 0.18249708
0.11372007 -0.1064458 -0.070531465 0.03119968 -0.22902098 -0.098716155 -0.14951816 0.12042087
0.17927209 0.0093733715 -0.14260867 0.05314415 0.10515296 -0.17969581 0.098248035 0.0480323
0.16224304 0.049981944 0.13953163 0.20289809 0.13392743 0.10303757 0.047164157 0.05989651
0.13948153 0.22255814 -0.043387137 -0.0012095898 -0.07583862 -0.17247863 0.029940626 0.23228373
0.04029158 -0.013644227 0.004466577 0.19444956 0.20435171 0.21033874 0.079126865 0.1408804
-0.13258283 -0.10922239 0.05111066 0.037995774 0.03662802 -0.08995831 -0.11029374 0.16027875
0.21264088 0.055425774 0.2190628 0.05806083 0.25744608 -0.08992559 0.1120638 -0.17105377
-0.24290474 0.19290727 -0.034971654 -0.23876962 -0.08030961 -0.15601723 -0.07155932 -0.102247335
-0.017531935 0.10756707 -0.016221471 -0.022654587 0.0812085 -0.20347719 -0.14644006 -0.03927285
0.08252616 -0.022030866 -0.15814672 0.18870129 -0.022489112 0.09877303 0.21642396 -0.061620597
-0.13123502 0.039286613 -0.14265394 0.13666046 0.22806847 -0.14299151 0.09661274 0.07038894
-0.19714977 -0.08212072 -0.009008226 0.094575346 -0.02576393 -0.22625059 -0.14814623 0.06742163
-0.124975145 0.12668139 -0.03766592 -0.0076998067 -0.22628696 -0.14944048 0.03629773 -0.15886278
0.068463154 -0.17304702 0.121437 -0.10336177 -0.1398482 0.15743655 -0.056913096 0.22820653
-0.07739521 0.037393633 -0.072911814 0.030936306 0.09836145 -0.071615845 0.099062726 0.09200523
0.0062163295 -0.18426815 0.081941895 0.19502293 -0.020610843 0.19179513 -0.2559154 0.0026248435
0.13524263 0.040771008 -0.044559166 -0.04977235 0.09836384 -0.23856175 0.14443067 0.082721606
0.055770922 0.20228389 0.017001774 0.14432439 0.051078815 -0.1993244 0.21351421 0.037078176
-0.18803184 0.16314052 -0.055912845 -0.1781222 0.054427866 -0.1435172 0.224887 5.4462416e-06
0.12489132 0.11389715 0.1769694 0.20783111 0.2515483 -0.24680284 -0.19811013 -0.05014848
0.038448576 0.12688577 -0.17611453 0.25354522 -0.05493515 -0.24862318 0.25224108 0.012483909
-0.15560274 -0.1508575 -0.055352807 -0.19655524 0.06160908 -0.20888157 -0.16098027 0.028790975
-0.14217626 0.10623254 -0.058799516 0.17521286 0.012813261 -0.17512465 -0.09492979 0.20007822

fc2.weight f4 [150, 202]
00000000: 9503 b5bd f581 a63d 3ff7 053b ec03 89bc
00000010: b16c 0abd ee93 babc a29c 803d 9bef 883c
00000020: de05 323b 8750 b0bd 6f1f 05be f534 353b
00000030: feb7 ccbd a8d9 94bd 8468 adbd 3683 173d
00000040: 3ab3 7e3b fe70 08ba e2dd 5ebd 08be 0cbd
00000050: bf7d c9bd a536 993d f81b 81bc 0bfd 8f3c
00000060: 6d24 a2bd 631c d53b eec8 7bbd 5a58 48bd
00000070: 33f8 903b 1240 ef3c 2323 e1bc 9ede 5ebd
00000080: 021e b43d d769 813c ccc0 07bd bdfc 723d
00000090: d83b 41bd 723e 28bd ecde 123c 2e32 24bd
000000a0: fc92 26bd 927e 86bc 7733 84bd 809b 8b3d
000000b0: ad57 803d 7030 323d 88c2 293c bbe6 cb3c
000000c0: 3e7f 2fbd 53be 46bb 6107 f1bc c38e 3ebd
000000d0: 05a0 4abd 369d 383d 9124 a63c 74f6 423c
000000e0: b433 2f3c 67bd 153d c2a7 a03d 94a3 143e
000000f0: 0bf3 8dbd 8810 bbbd 2553 a2bb cdb1 8dbd
00000100: 8118 a6bd 239e 533d a8eb 7c3d 1039 24bc
00000110: e0cc c23d 8c12 abbc b418 1e3d 52f5 163d
00000120: 6f74 4138 6aaf a13b 84d0 8bbd c766 0d3c
00000130: a303 2abb 5cc9 da3d e04a 06bc cbb6 05bd
00000140: 68a3 b03d adc9 b0bc a260 1fbd c490 85bd
00000150: e20c a23c 0d14 543d 7776 26bd bb49 933c
00000160: e47b 133c bf78 133d b4e6 37bb 8bb6 0c3c
00000170: 91fa 943d 1d52 46bd 9264 e73c 1cd8 59bd
00000180: b825 343b 2e24 c93d a3ec 8ebd 649e 40bc
00000190: 7be6 84bd 0c15 c2bc 09ef 40bd e516 903d
000001a0: 6a49 093d e0b2 9b3d c988 063d cd8a 833c
000001b0: 4b60 70bd fc12 c83d dce1 8a3d ac3a 6a3d
000001c0: 28a6 b73c 49a3 c33d fb47 93bc fb03 653d
000001d0: 48d4 293b 2284 3b3d ccae 28bd a9a5 f13c
000001e0: 223f 31bd 19d2 d8bc 3688 7bbd c5e0 6d3d
000001f0: 61e2 2f3d 846a 323b f65c 6dbd b573 803d
00000200: f1d3 913d 41e0 68bd f6bf 9ebd b33c 893d
00000210: a33c 67bd 277b 82bc 745e eabc babf 88ba
00000220: c04f 5e3c b492 8cbd 5e11 be3c 9deb 083e
00000230: 0de2 533c de58 12bd 32c3 993d fd61 453d
00000240: dd54 2ebd 2738 b53d b318 e3bc 68e6 b43b
00000250: db08 fa3d 5f67 cb3d 8236 e1bc c2ba b6bd
00000260: fd7e bfbc 3608 8bb9 f2ac 61bd 3fb8 0bbd
00000270: 1670 753d bbde 8abd cb13 db3d 1f9c 9b3c
00000280: 45fa 0a3d ce1a d9bd f608 813d a0b0 00bd
00000290: c339 993c 8ffa 883d 0c29 a9bd b193 b7bc
000002a0: c0c9 3fbd 3841 e23c 73ab 70bd 9d6a b0bc
000002b0: 9d24 12bd f2ed 09bc bbc2 82bd feab eb3c
000002c0: 565a 47bc 62f7 353d 09da 7e3d 9a66 c7bc
000002d0: b48e 9ebd 40a0 3cbc a25e 4d3d 4f01 29bd
000002e0: 1e91 be3d 1164 f43c 0b9c eebc 404c 9bbd
000002f0: d0fd 8c3d 7f2b 0e3c 4908 4dbd 7ac4 6e3c
00000300: 4632 873c 10e1 97bd 5662 443d 0f55 2b3b
00000310: c991 903d 26da b2bc f525 c0bd ede2 9fbc
00000320: 016e bdbc d5c5 10bc 70c4 d8bc 5548 e13c
00000330: ca24 ad3d 7937 213d c727 883d 82c7 b2bd
00000340: 1f15 bfbc 723b 95bd 9aa7 873c 50a0 b23d
00000350: c4c8 eabc 7a43 033e 1cb7 243d 85db 0abd
00000360: d4a4 2d3d e52f 7c3d 95cb fc3c 7614 99bc
00000370: f1b8 7ebd d181 34bc 583b 883d c0ff b93c
00000380: 338e c43c bd29 ac3d e62c 363d 63df a93c
00000390: 7271 a4bc 4d37 6bbd 41fb 3bbd a7be 8d3b
000003a0: f2ff 3d3d 18fe ebbc fc75 4ebd 4daf fdbd
000003b0: e8d8 a93c 5054 423d 683e 0f3d c6dd d7bb
000003c0: 7e21 90bd 6071 39bd 5c50 0cbe d241 3ebc
000003d0: c9b6 01bd e05f 6f3c 4689 fb3c 382a d23c
000003e0: dec8 3dbd 4a57 d23d 2774 2b3d 125d a83c
000003f0: 6857 443c 413e ccbc 213d 26bd 174a 3fbc
-0.08838574 0.08130256 0.002044156 -0.016725503 -0.033795062 -0.022775616 0.06279875 0.016715815
0.0027164142 -0.08609109 -0.13000272 0.0027649973 -0.09996031 -0.07268077 -0.084672004 0.036990367
0.0038864152 -0.00052048254 -0.054410823 -0.034360915 -0.09838437 0.07481126 -0.015760407 0.017576715
-0.07917104 0.006503628 -0.06147092 -0.048912384 0.004424119 0.029205356 -0.027482575 -0.054411523
0.08794786 0.015797539 -0.03314285 0.05932306 -0.047176212 -0.041075177 0.0089642815 -0.040086918
-0.04066752 -0.016417775 -0.06455129 0.06816769 0.06266723 0.043503225 0.010361321 0.024890294
-0.042845957 -0.0030325844 -0.029422464 -0.046522867 -0.049469013 0.045071803 0.020281108 0.011899579
0.010693479 0.03655758 0.07844497 0.14515525 -0.069311224 -0.091340125 -0.0049537593 -0.069186784
-0.081101425 0.051664483 0.061748177 -0.01002337 0.09511733 -0.020882867 0.038597777 0.03685505
4.6123223e-05 0.004934241 -0.068268806 0.008630461 -0.002594211 0.106829375 -0.0081965625 -0.032645028
0.08624917 -0.021580542 -0.038910516 -0.065217525 0.019781534 0.051776934 -0.04064032 0.017979493
0.009001706 0.036003824 -0.0028061094 0.0085884435 0.07274354 -0.048418153 0.028246198 -0.053184614
0.0027488302 0.09821354 -0.069787286 -0.011756513 -0.06489273 -0.023691677 -0.04710296 0.07035617
0.03351728 0.07602477 0.032845292 0.016057396 -0.058685582 0.09769246 0.067813605 0.05718486
0.022418097 0.095526285 -0.017978659 0.055912 0.0025913883 0.04578031 -0.041182324 0.029497938
-0.0432731 -0.02646737 -0.061409198 0.058075685 0.0429405 0.0027224133 -0.057949983 0.06272069
0.07120503 -0.05685449 -0.077514574 0.067010306 -0.056454312 -0.015927864 -0.028609492 -0.0010433116
0.013568819 -0.06863919 0.02320164 0.1337113 0.012932313 -0.03572928 0.07507934 0.048189152
-0.0425614 0.08848601 -0.027721738 0.0055206306 0.1220872 0.09931826 -0.027491812 -0.0892234
-0.023375982 -0.00026518264 -0.055096574 -0.034111258 0.059921347 -0.06780764 0.106971346 0.018995343
0.033930082 -0.10600816 0.06300537 -0.031418443 0.0187043 0.06688415 -0.08259782 -0.022409292
-0.046823263 0.02761899 -0.058757257 -0.021535212 -0.03567945 -0.008418547 -0.06384798 0.028768536
-0.012167534 0.044425376 0.062219653 -0.024340916 -0.07742062 -0.011512816 0.050139077 -0.041261014
0.09305023 0.029832872 -0.029127141 -0.07582903 0.068843484 0.008677362 -0.05005673 0.014573211
0.016503464 -0.07415974 0.047945343 0.0026143228 0.07059056 -0.021832537 -0.0938224 -0.019517386
-0.023123743 -0.008836229 -0.026460856 0.02750031 0.084542826 0.039359543 0.06648212 -0.08729459
-0.023325501 -0.07286729 0.01655941 0.087219834 -0.028660186 0.12818709 0.04021369 -0.033900756
0.04239352 0.061569113 0.030858794 -0.018686514 -0.062188093 -0.011017279 0.06651944 0.022704959
0.023993587 0.084063984 0.044476412 0.020736402 -0.020073626 -0.057425786 -0.04589391 0.004325706
0.046386667 -0.028807685 -0.050405487 -0.123869516 0.020733312 0.047443688 0.034971625 -0.0065877168
-0.07037638 -0.04527414 -0.1370253 -0.0116123725 -0.031668458 0.014610261 0.030705106 0.025654897
-0.04633414 0.10270555 0.04185882 0.020552192 0.01198373 -0.024932029 -0.04058564 -0.011675379

fc2.bias f4 [150]
00000000: 293f 05be f8d2 153d 5885 7d3d c00b 333e
00000010: 912a cc3d 74d3 89bc a372 483d 3cad bbbd
00000020: d99f 9d3c b534 903d 519e 153d 048a 9b3d
00000030: 1bcf 9f3d e075 ffbb 3b61 ccbd 509f af3d
00000040: 0276 3ebd 6626 20bd 90b5 713d fbe1 6f3b
00000050: af61 cabd 25ff f03c aec1 bfbc cc3e 84bd
00000060: 59f7 213d a2c2 7f3d d2e7 6e3d 6a26 ec3d
00000070: 7473 953d 266c 13bd 7cbf 75be 6ae0 d0bb
00000080: ee46 ad3c 0c37 143e a80c 72bc ba96 b33d
00000090: 2416 c6bc 45da 103d ab3c a93d 3477 f93d
000000a0: 2372 12bd bcb8 183d 1906 1b3d 92ff 903c
000000b0: 3be2 363d 97fc e13d 8b5b a33d 11cc e73c
000000c0: 334a c33d ff19 a23c 48d1 10be ba1c 223d
000000d0: 978f 03bd c0ab f63c 570b 603d 98e0 213d
000000e0: beca 49bd b5af 7bbd 9504 82bc 14c1 d4bc
000000f0: 92e4 113d d7cd e03d e241 263b 61a0 0cbd
00000100: c660 103e bd58 aa3c b08e 703d d225 0ebd
00000110: 587f 833d 8f23 0a3d b4b8 7c3d 1a84 ccbd
00000120: e966 50bc faf6 5e3d dbea b1bd ad8d f23d
00000130: fcc1 40bc 1896 b73c deaa 263d 9a3d 25be
00000140: 2dee 71bc f939 0a3d 1bf9 35bd ca99 36bd
00000150: 8844 c23c f4d2 93bd b54e 53bd 1142 8a3c
00000160: 449a b53c 0538 c13d 31b2 2e3b 42fe 56bd
00000170: 1ef6 bb3c d8a7 063c 3e68 953d f009 01bd
00000180: f244 fa3d a733 cc3d b11f bebb 818b 88bd
00000190: 7c5c f33c 0cfb 00be 2dd2 613c e6cb 963d
000001a0: 5096 043d 21fd b0bc a97c 733c 7caf 85bc
000001b0: 3cad 943d a84c c23d 2b2a 23bc d042 ab3c
000001c0: 294b 26be bd4d 093e dcfb 913d 3b40 883d
000001d0: 4606 943c d5ec 36bd 0a7a 813d 2c07 0c3d
000001e0: 3566 123c d2a8 70bd 84b4 63bd 8181 e6bd
000001f0: 0c0d ad3d 06f8 41bd a4ef 0d3d 6986 f5bc
00000200: 4dfa 95bd fb21 23bd 78bd cbbc 648c c7bd
00000210: bcf1 843d 0f38 083e 1fa7 1b3d bf63 eb3d
00000220: 767f dfbc 57d5 ca3d 4690 c4bb 92ed f9bc
00000230: e9ef 583d 892a f53c 559e 98bc 5067 dfbd
00000240: 0b70 d63b 4d86 b93c 0fd8 25be 47c9 22bb
00000250: e951 c23d f636 8e3d
-0.13012375 0.03657815 0.061894745 0.17484951 0.099690564 -0.016824462 0.04893745 -0.09163901
0.01924126 0.07041303 0.036527935 0.07594684 0.07803174 -0.007796034 -0.09979483 0.08575308
-0.04649926 -0.03909912 0.059011042 0.00366032 -0.09881913 0.029418537 -0.023407783 -0.0645729
0.03954253 0.062441476 0.05832655 0.115307644 0.072974116 -0.03599181 -0.23998827 -0.0063744085
0.021151986 0.14474124 -0.014773525 0.08768983 -0.02418048 0.035364408 0.082635246 0.12180939
-0.03575338 0.03728555 0.037847612 0.01769999 0.044649344 0.11034506 0.07976445 0.028295549
0.09535637 0.019787787 -0.14142334 0.039578177 -0.03211936 0.030111194 0.054698315 0.03952083
-0.049265616 -0.061446864 -0.015871326 -0.025970973 0.035618372 0.10976761 0.002536886 -0.034332637
0.14099416 0.020794267 0.058729827 -0.034704037 0.06420773 0.033725318 0.061699584 -0.09986134
-0.012719848 0.054434754 -0.08687373 0.11843429 -0.0117649995 0.022410437 0.040690295 -0.1613678
-0.014766258 0.033746693 -0.04442702 -0.04458026 0.023714319 -0.072179705 -0.051588733 0.016877206
0.022168286 0.09434513 0.0026656503 -0.052488573 0.022944506 0.008218728 0.07295273 -0.031503618
0.122201815 0.099707894 -0.0058021178 -0.06667233 0.029707186 -0.12595767 0.01378302 0.07363109
0.03236991 -0.021605076 0.014861264 -0.016319029 0.07259604 0.09487277 -0.009958784 0.020905882
-0.16239609 0.13408561 0.071281165 0.06652876 0.018069398 -0.044659454 0.06322105 0.034186527
0.008935501 -0.05875475 -0.055592075 -0.1125517 0.08449754 -0.047355674 0.034652367 -0.029971318
-0.07323132 -0.03982733 -0.02487062 -0.09743574 0.0649142 0.13302635 0.038001176 0.114936344
-0.027282458 0.099039726 -0.005998644 -0.03050879 0.05296317 0.029927509 -0.018630186 -0.10908377
0.0065441183 0.022647047 -0.16195701 -0.002483921 0.09488279 0.06944077

fc3.weight f4 [1, 150]
00000000: e2ab 1dbc 9bc4 f5bc 83e8 b73c 825b ec3c
00000010: df62 c33c bc19 bc3d be7b 6f3d 03f9 d3bc
00000020: a553 a5bc 9884 003d a51c 8f3c ef2c 413c
00000030: 945e 643c 9272 9bbc db6f 01bc 18e7 583c
00000040: f361 043e fe4a a63c fdeb 4b3c c53d 6ebc
00000050: 9c5d 61bc 2dc1 07bd 5c9d 083d 093d ce3d
00000060: 0b9e 74bc 0baf ac3c 99a5 973c 9677 693c
00000070: 0c5b 403d bcff 1abd 9292 40bd 829b e2bd
00000080: 8c91 803c 96d2 a7bd fc45 983d 43f1 b33b
00000090: dae2 0dbe 8118 083c c01c 023e 3e64 783c
000000a0: d76f e2bb 987e 013b 9f66 a93c 524f 093c
000000b0: 49db 1d3c 3a7c 573c e35d 0d3d ad4e 283c
000000c0: 2b1c 7d3c 3fbd 2abe 1cbb c0bc 8fd3 2f3c
000000d0: 472f 66bd ce02 fbbb b559 c43c 2ddf fa3c
000000e0: 7a16 ffbc 0069 b63d ed40 653c 5219 78bb
000000f0: ed09 b23d 91f5 ef3c 606c 63bd d9dc 75bd
00000100: c78b 043c eec3 323c f91c 023c 6c82 1c3e
00000110: eff8 9b3c fde8 733c 5a40 e93b 06f5 80bd
00000120: 434a 7f3c b854 5dbd 0ee0 87bd f9c6 6a3c
00000130: 478b df3d 137a ff3d a99f 053c df76 23bd
00000140: 153f 6b3d faeb c73c ef1f 6fbc 6874 44bc
00000150: 6e5a 113d e915 c7bb 1b3d d53c c3eb 13bd
00000160: 381a 53bc 5227 6a3c 5e55 c23c 0439 3dbc
00000170: 1707 7c3c ceb9 963c 3a70 753c 7f95 a2bd
00000180: 0b38 b03b da2c e93c 8b2e 6dbd 2f23 07bc
00000190: d523 c53c f1f4 5fbc fe64 48bd ebe5 983d
000001a0: 5b75 6b3d 4082 5abd 96b1 713d 91ca bbbc
000001b0: 16cd 82bd e76e 1d3d 39b1 03bc 9dff 073c
000001c0: da31 11bd 26bd 6c3c dcd1 3b3d 8e3d a03b
000001d0: 7650 093c fd01 b9bc 240b 943c 655a c83b
000001e0: 879c 963c ac18 02be 7a43 10bc ee24 13bd
000001f0: 4d25 b53c 7151 9ebc 828e 66bd 3f5e 193d
00000200: 266a dcbc 6824 483d 4fa1 7e3c 3d6d 80bc
00000210: d97d cc3c fade bf3c 9544 923d be4f a03c
00000220: 2076 933c 551b 823c 5778 453c d228 cabc
00000230: e97f 8f3c 1c29 ea3c 5558 cbbc 5d9e a0bd
00000240: 6404 4c3d d06c 963d 2fa2 82bc e044 113d
00000250: 68b6 323c 2662 db3c
-0.0096235 -0.030000975 0.022449737 0.028852228 0.023850856 0.09184596 0.05846762 -0.025875574
-0.020181486 0.03137645 0.017469713 0.011790498 0.013938565 -0.01897553 -0.007900204 0.013238691
0.1292799 0.020299431 0.012446401 -0.014541094 -0.013755228 -0.03314321 0.033353195 0.10070235
-0.0149302585 0.02107956 0.01851158 0.014249703 0.04696183 -0.037841544 -0.04701478 -0.11064817
0.015694402 -0.08194463 0.074352235 0.005491407 -0.13856068 0.008306623 0.1270628 0.015160618
-0.006910305 0.0019759294 0.020678816 0.008380728 0.009634801 0.0131521765 0.034513365 0.010272664
0.01544861 -0.16673754 -0.02352672 0.010731592 -0.05619743 -0.0076602465 0.023968557 0.030623997
-0.031138647 0.08906746 0.01399253 -0.003785689 0.086932994 0.0292919 -0.055523276 -0.06002507
0.008089966 0.010910971 0.007941478 0.15284127 0.0190396 0.014887092 0.007118267 -0.062967345
0.01558167 -0.054035872 -0.06634532 0.014329665 0.10915237 0.12474456 0.008155742 -0.039908286
0.057433207 0.024404515 -0.014595016 -0.011990644 0.03548663 -0.00607561 0.026030114 -0.03611351
-0.012884669 0.014291601 0.023722347 -0.011549238 0.01538255 0.018399145 0.01498037 -0.0793867
0.0053777746 0.02846377 -0.057905715 -0.0082481345 0.024064938 -0.013669238 -0.04892444 0.07465728
0.057484966 -0.053346872 0.05900725 -0.02292374 -0.06386773 0.038435843 -0.008037859 0.008300689
-0.035447933 0.014449393 0.045854434 0.0048901504 0.008381 -0.022583956 0.018071719 0.0061142915
0.018385185 -0.12704724 -0.00880515 -0.03592389 0.022112513 -0.019325944 -0.05628825 0.037443396
-0.026906084 0.048862845 0.015541389 -0.015677089 0.024962353 0.023421753 0.07141987 0.019569274
0.018000662 0.015882174 0.012052617 -0.024677668 0.017517047 0.028584056 -0.024822393 -0.078427054
0.049808875 0.07344973 -0.015946476 0.035466075 0.010907747 0.0267802
