checkpoint_critic1.pth (torch_old, 143415 bytes, 5 tensors)

fcs1.weight f4 [200, 24]
000000 c1 1f 6f bb 04 b1 e0 3d 9e 7e 97 bc c8 f0 b6 3c
       -0.0036487433 0.10971263 -0.018492993 0.02233161
000010 61 62 a7 3d 03 a4 1a bc c3 b2 69 3b 25 ac 82 39
       0.08173061 -0.0094385175 0.0035659529 0.0002492379
000020 86 c5 79 3c 47 2b 11 3e 29 e7 2f bd b9 ab 1e 3b
       0.015244847 0.14176665 -0.04294506 0.0024211241
000030 0a 1d 1f 3e f6 db 21 be 50 d0 64 bc 19 67 13 3d
       0.15538421 -0.15806565 -0.013965681 0.035986993
000040 be 17 41 3d 29 6c c8 3d 9e c1 51 bd d2 25 8f 3c
       0.047141783 0.09786255 -0.05121004 0.017474089
000050 cc 4d 40 bd 0a ca d1 3d c2 71 0e 3c 0d 2d 07 3d
       -0.046949193 0.10243614 0.008694114 0.03300195
000060 56 19 1b bd 15 e9 29 bd 07 be 3d bc f9 ec 08 3b
       -0.03786596 -0.04148205 -0.011580951 0.00208932
000070 c4 f4 e1 bc a7 dc 01 bd c3 d3 2b 3c 40 bb 2c 3c
       -0.027582534 -0.03170457 0.0104875 0.010542691
000080 55 6e f4 3c 3d 2f e7 bc 68 80 de 3c 0e 23 45 3d
       0.029837767 -0.028220767 0.027160838 0.048129134
000090 be 3a 85 bd 04 06 f6 3d 32 dd 1a bd d4 a8 0d bd
       -0.06505345 0.12012866 -0.037808605 -0.034584835
0000a0 f4 a0 1e 3d d4 ed f4 3c 3e 95 76 3c 61 56 e3 3a
       0.038727716 0.029898562 0.015050231 0.0017344469
0000b0 cb a0 17 3e 3b b5 59 3e 18 16 74 bc 90 df 81 3d
       0.14807431 0.2126054 -0.014897846 0.06341469
0000c0 47 9b 2e bd 2c c5 b0 3d 98 7d 1c bd 32 80 9c 3c
       -0.042628553 0.086313576 -0.038205713 0.019104097
0000d0 28 80 d6 3c 2d 1f 89 3d 8c 7a 05 3d 90 77 8a 3c
       0.026184157 0.066953994 0.032587573 0.016902715
0000e0 95 8f 07 3d 94 88 03 3e e7 b3 96 3c 93 99 1b bd
       0.033095915 0.12845069 0.018396331 -0.037988257
0000f0 bc bf 71 3c 1d 84 75 bd 4a ed 34 bc 20 e7 03 bd
       0.014755186 -0.059940446 -0.011042902 -0.03220284
000100 00 c2 f1 bc f7 60 9c 3c 85 36 08 3c 9e 18 1a bd
       -0.029511452 0.019089205 0.00831378 -0.037621133
000110 fd 6f 19 bd 91 93 90 be be 86 f7 3b 06 af 63 bd
       -0.037460316 -0.28237584 0.0075539043 -0.055586837
000120 24 a4 f3 3c ce fd c1 bc 49 86 1b bb a3 a9 53 3d
       0.029741354 -0.023680594 -0.0023731163 0.05167545
000130 68 36 9b bc 57 77 c2 bb 6e cb 7d 38 57 03 94 3c
       -0.018946841 -0.0059346366 6.050936e-05 0.018067999
000140 d0 56 1d 3c db 7f a5 3b 71 ac 3f 3d 5b 7f b9 3b
       0.009603217 0.005050642 0.046795312 0.005660934
000150 b7 1a 4a 3b cb 46 0d 3e 9f 2b 30 bd bd fd e8 bb
       0.0030838677 0.13796537 -0.04301035 -0.007110326
000160 5c 00 12 bd fe b4 b3 3d 8d 26 05 bd 60 63 9b bc
       -0.035644874 0.08774756 -0.032507468 -0.018968284
000170 b3 63 4f 3e 3d 22 e3 bd 39 04 30 3d 64 7b bf bd
       0.20252876 -0.11090515 0.042972777 -0.09349707
000180 44 90 14 bd b2 ee d8 3c ba b4 97 bb 69 ef 48 bc
       -0.036270395 0.026481006 -0.0046296986 -0.012264111
000190 fd 32 d9 bd 82 b5 8f 3d 8c a0 c8 3c bc b6 a3 bb
       -0.10605428 0.07017042 0.024490617 -0.004996149
0001a0 50 91 af bc 82 27 22 bd 7e c4 fb bc 4e 54 76 bd
       -0.021431595 -0.03958846 -0.030733343 -0.060138993
0001b0 51 23 09 3d 3f a1 83 3d c3 83 64 3c d6 cc 73 3d
       0.033480946 0.064272396 0.01394743 0.05952152
0001c0 11 49 06 3c 10 81 5e bd d4 80 62 bc ba 64 7d 3c
       0.008196131 -0.054322302 -0.01382466 0.01546591
0001d0 74 b8 01 3e a1 4d 99 bc ae 0d 23 bc 3e 9c 16 bc
       0.1266802 -0.018713774 -0.009951992 -0.0091925245
0001e0 4e b7 9b bd fe 9d 1a 3d f9 79 e4 bb 48 a6 86 bc
       -0.07603322 0.03774833 -0.006972548 -0.016436711
0001f0 9e a5 e2 3d a2 c7 d8 bc a9 d4 84 3b f0 40 8f bc
       0.11066745 -0.02646238 0.0040536714 -0.01748702
000200 70 c5 1e bc 57 6c 7f 3d 6d 13 03 3b 82 27 db 3c
       -0.009690627 0.06235918 0.0020000592 0.026752237
000210 61 59 aa 3d 99 e2 cc 3d 96 a4 5c bc c9 1e 76 bc
       0.08317829 0.100041576 -0.013466975 -0.015021988
000220 5b e0 51 3d e6 c3 1e 3d 07 19 05 3d 54 55 1b 3d
       0.051239353 0.038761042 0.03249457 0.037923172
000230 04 7b 25 be 5c 49 18 39 43 23 9f bb 81 f0 d1 bc
       -0.16160208 0.00014523178 -0.0048564984 -0.025627377
000240 46 f6 24 3a fb 68 b4 bb 21 13 6a 3d 72 22 2c bd
       0.0006292801 -0.0055056787 0.05714715 -0.042025037
000250 9f ab 0e 3e 99 1c ce bc b3 20 73 bd 9c 13 7a 3d
       0.13932656 -0.02516012 -0.059357356 0.061053857
000260 20 fc 22 bc 11 f5 d5 3d 1b f0 46 bc bd 00 94 3d
       -0.009947807 0.10447133 -0.012142207 0.07226703
000270 97 5d de bc 13 18 52 bc 1e 30 b8 3c 83 b6 08 3d
       -0.027144236 -0.012823123 0.022483882 0.03337718
000280 8d c2 93 bd 51 cc 61 3d 55 5d fc 3c 09 db 16 bd
       -0.07214842 0.055126492 0.030806223 -0.036829982
000290 c3 80 cb bc c4 34 21 3e 56 96 3e bc 7f 95 d6 bc
       -0.024841672 0.15742785 -0.011632523 -0.026194332
0002a0 37 e9 36 3c b9 f7 27 3d bf 74 ea bc 1e fd 05 3d
       0.011164001 0.04100773 -0.028620122 0.032712094
0002b0 7e 86 58 3d 2e 42 60 3d 68 19 15 3d 8a 71 d8 bb
       0.052862637 0.054750614 0.036401182 -0.006605332
0002c0 44 00 af bc 1a 3f a0 bd 62 cf eb bb ed b3 ae 3c
       -0.021362431 -0.07824536 -0.007196353 0.02132603
0002d0 36 7d 77 bd 3e dd ea 3c d0 d4 17 3a f3 dc 9a 3c
       -0.060422145 0.02866995 0.00057919044 0.018904185
0002e0 e9 66 b0 3d ae 8e 31 3d 3f bc c2 bc e0 12 68 3d
       0.086133786 0.04334896 -0.023771403 0.056658626
0002f0 a3 58 0d be 91 4c 09 be 19 1b 13 3d 84 52 4d bd
       -0.13803343 -0.13408114 0.035914514 -0.05012752
000300 fa 8d a1 bc 2d 46 06 3e c7 11 5d 3d 21 1d 90 bc
       -0.01972102 0.13112707 0.053972032 -0.017592015
000310 35 d8 90 bd a5 26 d9 3c 25 87 4c bd ea 34 08 3d
       -0.07072488 0.026507685 -0.04993357 0.033253588
000320 0e 90 52 3d 0c 7a 19 3d 74 69 e0 bc a9 54 34 3c
       0.051406913 0.03746991 -0.027394034 0.011006513
000330 32 38 0e 3d 9d 7d cf 3d 66 ae 8a bc 9b 6c de 3c
       0.03472156 0.10131381 -0.016928863 0.027151396
000340 d5 2d 5c 3d 21 44 01 3d d2 9f 54 bd e8 38 b6 bb
       0.053754646 0.031559113 -0.05191023 -0.005560983
000350 cd 7d f3 3d 98 61 89 bd c6 53 3b 3d 8c 9e a9 bb
       0.11889229 -0.06708068 0.04573419 -0.005176371
000360 3f 20 f6 3c d6 b1 0f 3e 73 21 a4 bc f6 0c 32 3d
       0.030044673 0.14032683 -0.020035481 0.04346939
000370 d5 3a 39 bd 25 94 49 bd f7 5d b1 3c 92 c4 0b bd
       -0.045222122 -0.049213547 0.021651251 -0.03412301
000380 04 22 0e bc fd 1a d7 3d 8e ae 65 3d 09 0f 36 bc
       -0.008675102 0.105031945 0.05607467 -0.011111983
000390 0c f9 c8 bc 7f f8 31 be d5 14 0f 3c c1 e1 9c 3c
       -0.024532817 -0.1737995 0.008732994 0.019150617
0003a0 94 95 e0 3c 06 6b 05 3e 78 a5 06 3d 52 50 ee 3b
       0.027415074 0.13029107 0.032872647 0.0072727585
0003b0 90 43 d6 3c 91 5b 00 bf c1 a6 f8 bc c1 3d 81 bc
       0.026155263 -0.5013972 -0.030352952 -0.015776517
0003c0 30 a5 00 3d 3a 23 2f bd 52 a2 c5 bc b3 5a 8c ba
       0.031407535 -0.042758204 -0.024125252 -0.0010708183
0003d0 f3 60 cd 3d 51 a8 99 3d 29 98 03 3d 17 ba e7 3c
       0.10028257 0.07502807 0.032127533 0.028286977
0003e0 6d 50 0c bd 61 40 b0 bd 91 7c 6a 3c d6 2c 9e 3c
       -0.034256388 -0.08606029 0.0143119255 0.019308489
0003f0 f6 08 54 39 55 e8 be 3d c9 25 3d bc 42 ff f9 3b
       0.00020221234 0.093216576 -0.011544653 0.007629306

fcs1.bias f4 [200]
000000 7c d9 2e be 51 8a 0f be 61 90 80 3e 82 ee 42 be
       -0.17075151 -0.14017607 0.25110152 -0.19036296
000010 87 49 39 be 32 f0 e5 bd 40 29 9e be 8d 54 12 be
       -0.18094455 -0.11227454 -0.30890846 -0.14290066
000020 f7 b4 9e bc f0 7b ee bc 4a d9 14 3e 26 52 83 3d
       -0.0193734 -0.029111832 0.14536014 0.06412153
000030 65 12 d8 bd 83 43 04 bd 87 89 21 3e 21 18 07 3e
       -0.105503835 -0.032290947 0.15775119 0.13192798
000040 51 79 ce 3d 9a 6c a6 bd b8 8a 7f bd b2 c7 d3 3c
       0.10081733 -0.08126183 -0.062388152 0.025852058
000050 8e d7 7a be 29 40 ba bc c3 29 1f be 56 3c e4 3d
       -0.2449629 -0.022735672 -0.15543275 0.11144321
000060 cf 50 ad 3d 6e 9b d4 bb 5f 81 82 be 02 b5 86 3d
       0.08462679 -0.006488255 -0.25489327 0.06577493
000070 5c 19 12 3e d1 71 0b be 3f 8f 6e 3d b0 b1 06 bd
       0.14267486 -0.13617636 0.05824208 -0.0328843
000080 a4 6c 18 3e e6 ec b1 3c 8c ba 3f 3d 74 37 ab 3d
       0.14885193 0.021719407 0.046808764 0.08360186
000090 2b 98 17 3e e7 31 83 3d 99 ff de 3d 4f 70 07 3d
       0.14804141 0.064060025 0.10888595 0.03306609
0000a0 c7 55 eb 3d 0d 1a 55 3e 1b 3a c9 bc 48 99 90 3d
       0.1149097 0.20810719 -0.02456384 0.07060486
0000b0 5c 38 25 be 02 3b fc bd 7c b9 5b 3d fb a9 3e 3e
       -0.1613478 -0.12315942 0.05364369 0.1861953
0000c0 a6 30 bb ba 79 af 62 bd 1a 92 a0 ba a6 03 0e 3e
       -0.0014281466 -0.055343125 -0.0012250573 0.1386858
0000d0 ed 5b 81 3e 19 bc 6c 3e 35 a4 8a ba 49 ec 24 3e
       0.25265446 0.23118629 -0.0010577502 0.1610576
0000e0 a8 c3 ee bd 0f ee 28 bc 4c 8c 7a bd d7 4e a9 bc
       -0.11658412 -0.010310664 -0.061168954 -0.020667477
0000f0 cf dc d4 bb 9c 40 e7 bd 80 b2 e2 bd 99 29 60 3d
       -0.006496049 -0.1129162 -0.110692024 0.05472717
000100 99 7c 85 3e 7c 63 97 3d 65 4c 84 3e 9a cb 89 bd
       0.26071623 0.07392022 0.25839534 -0.06728287
000110 dc 67 88 3e 6f 6d 1e bd 7a ec 04 3e 12 e0 26 be
       0.26641738 -0.038678583 0.12980834 -0.16296414
000120 91 33 5b be 0c 2b 0b 3e b3 80 5e bd 21 bf 4d be
       -0.2140639 0.1359064 -0.054321956 -0.20092441
000130 51 fc b3 bd 32 03 21 be cb cf 50 3d 6b ce 00 be
       -0.0878836 -0.15723875 0.050979417 -0.12578742
000140 8a b4 bb bd a9 45 08 3e c4 d3 5b bc 66 fc 0a bd
       -0.091652945 0.13307823 -0.013417188 -0.033932112
000150 dc f4 55 3e e8 cf 81 be d9 a0 49 bd 59 d7 8b bd
       0.20894188 -0.25353932 -0.049225662 -0.06828184
000160 64 d3 7c 3c ad 95 cc bd 73 d9 23 be 5f 5b 31 3e
       0.015431259 -0.09989486 -0.16000919 0.17320012
000170 e1 50 dd bd 34 e5 99 3d ba 6c 79 3d 28 1b 47 bd
       -0.10806442 0.0751442 0.060894705 -0.048609883
000180 d7 ea 12 be 0a f8 43 3d 37 ea 39 be b8 e6 6e 3e
       -0.14347397 0.04784397 -0.18155752 0.233302
000190 99 0d 46 3e c6 76 ae bd 23 18 93 3d a8 80 87 3c
       0.19341125 -0.08518748 0.07182338 0.01654084
0001a0 1a 06 34 be 69 85 00 be 8b 12 31 bd f9 45 a8 3d
       -0.17580453 -0.12550892 -0.043230575 0.08216471
0001b0 ec 26 c0 bc 77 9d 65 be 02 a4 49 be 1d 9f 9a 3d
       -0.02345606 -0.2242335 -0.1969147 0.0754988
0001c0 d9 66 e7 bd b3 bc a5 3d 44 e7 1c 3d 3c 09 b9 bc
       -0.112989135 0.08092632 0.03830649 -0.022587411
0001d0 19 59 21 be c2 eb 16 be cc 7c 43 bc 08 9b 23 be
       -0.15756644 -0.14738372 -0.011931609 -0.15977108
0001e0 35 9b 7b bb 12 15 1b be 20 0e b5 3d d9 4f 0f be
       -0.003839207 -0.15144756 0.08840585 -0.13995303
0001f0 3f ca 49 be 67 82 1b 3e 20 f8 78 bd ba c6 3e 3e
       -0.19706057 0.15186463 -0.060783505 0.18630496
000200 d8 75 a9 bd e0 1e 88 3d 4a 7e bb bd d2 41 6c 3d
       -0.0827443 0.06646514 -0.09154947 0.05767996
000210 e3 76 c8 3d c9 51 17 3d e2 b2 04 3e 6a 29 f5 3d
       0.09788301 0.03694323 0.12958863 0.1197079
000220 cb 61 8e 3d c5 83 44 be d0 44 8c 3c cb b3 3c 3e
       0.06952246 -0.19190891 0.017122656 0.1842796
000230 7b ed 9f bd 51 7a 51 3e b3 44 2b be b0 44 dd 3c
       -0.07808968 0.20456816 -0.16725425 0.027010292
000240 38 95 8d 3e 0f 40 d9 bd 55 b7 18 bd de ad d1 3c
       0.27652907 -0.10607921 -0.037284214 0.025595602
000250 88 f8 40 3e ee 64 c5 bd d8 70 6d 3e 2f 43 c5 3d
       0.18844807 -0.096383914 0.23187578 0.09631955
000260 63 3c 7f 3c 5d 6a 2d 3e 8b b2 26 bd bd 0f 6e 3e
       0.015578362 0.16935106 -0.040697616 0.23248191
000270 93 9d 9a 3d 56 ef f6 bd 16 76 20 3e e9 fe ec 3c
       0.07549586 -0.120573685 0.15670046 0.028930144
000280 fb 92 4b be c3 ba 8d 3d 3d 87 99 bd fa ca 3a be
       -0.19880287 0.069203876 -0.07496498 -0.18241492
000290 53 1f 84 bd 12 bb 51 bc 63 51 92 3e b6 24 75 bc
       -0.06451287 -0.012800949 0.28577718 -0.014962366
0002a0 84 3b 06 3e 06 aa 31 3d 7e 8c 2e 3e 94 bc 81 3e
       0.13108641 0.043375038 0.17045781 0.25339186
0002b0 57 ed 1a 3e 9b 41 81 be 84 6b 39 be 9b 97 54 bd
       0.151296 -0.25245366 -0.1810742 -0.051902395
0002c0 de f4 c9 3c 2f 90 dd 3d 22 40 0c be 02 2f be 3d
       0.024652895 0.108185165 -0.1369634 0.0928631
0002d0 4f f8 bf bc 16 6f 86 be 08 d6 98 3e 68 4c bf 3d
       -0.023433832 -0.26256627 0.29850793 0.09340745
0002e0 11 e9 da bd de 1c 03 be b4 76 2a bd f6 01 63 be
       -0.10688985 -0.1280398 -0.04161711 -0.22168717
0002f0 6c eb 0c 3d 5b 67 27 be 8e 0b 02 be 11 8f 6b 3c
       0.034404203 -0.1634802 -0.1269972 0.014377371
000300 bf 8c d4 bd cb 99 1e 3e 09 f5 17 bc 76 d6 3d 3e
       -0.10378408 0.15488355 -0.0092747295 0.18538842
000310 d3 4a 55 bd 04 9d 56 be 80 5e 29 bd f3 3b 55 3e
       -0.05207331 -0.20958334 -0.041349888 0.2082365

fc2.weight f4 [150, 202]
000000 ba 09 b3 bd 7b 88 82 3d 03 e6 4c 3d 63 eb c8 bc
       -0.087420896 0.06373688 0.050024044 -0.024526304
000010 fb fd 35 bd e5 a8 01 bd df 87 17 3d 97 43 3c 3d
       -0.044431668 -0.03165521 0.03699481 0.045962896
000020 0f 40 9d bc db af 1c be 3e 86 7a bd c5 ab 8f 3c
       -0.019195585 -0.15301459 -0.06116318 0.01753796
000030 4b 76 4e bd 77 ae 0e bd aa 29 64 bd 12 66 81 3c
       -0.05040578 -0.03483435 -0.055703796 0.015795741
000040 82 34 12 3d f2 90 88 bb 86 74 49 bd 90 79 08 3d
       0.035694607 -0.0041676695 -0.04918339 0.033319056
000050 5e 6d 77 bd 04 7e 04 bd a8 20 6c bc d6 49 4f 3c
       -0.060407035 -0.03234674 -0.014412083 0.012651881
000060 ab a3 94 bc f7 25 0b 3d 54 3f 25 3c 93 92 83 bd
       -0.01814445 0.033971753 0.010085899 -0.06424441
000070 66 e8 d6 3c 9e 7b 80 3c 9b 28 f7 bc aa 48 d3 bc
       0.026233863 0.015683945 -0.03017073 -0.025791485
000080 30 66 51 3d a7 7d 5b bb e8 71 c2 3c 4d 11 01 be
       0.051122844 -0.0033491643 0.023735955 -0.12604256
000090 bf a9 6e bd 3b 87 4a bc 6d ad 9d ba 12 05 21 3c
       -0.05826735 -0.012361343 -0.0012029834 0.009827869
0000a0 2e 81 d0 bd ac 1c 2f bd 0d e1 98 bc e9 57 dd bb
       -0.10180889 -0.042751953 -0.018662 -0.0067548645
0000b0 39 a5 3f bc c1 72 5f 3c c0 6d 42 bb f5 78 7a 3d
       -0.011697107 0.013638199 -0.0029667467 0.06115051
0000c0 20 1c ab bd 60 6c 4e bc 18 15 2f 3e b5 ae 17 3d
       -0.08354974 -0.012599081 0.1709789 0.037031848
0000d0 0b 32 2d bd 6d 0e 4b bd cf fe 16 3d fe 77 96 bc
       -0.042284053 -0.049574304 0.0368641 -0.018367764
0000e0 93 b8 78 3d 9b 37 13 3a 14 90 01 3d 97 d5 e3 3d
       0.0607229 0.0005615891 0.031631544 0.111247234
0000f0 21 ee 91 bd e3 c0 72 bd d9 e5 b9 bd fc ba 35 bd
       -0.071254976 -0.059265982 -0.09077043 -0.044367775
000100 40 d1 47 3b b5 9a d4 3d 53 0a e1 3c 30 e4 86 bb
       0.0030489713 0.103810705 0.027470743 -0.0041165575
000110 54 84 46 3d 07 6b e8 bd 98 61 93 3d 96 ee 30 3d
       0.04846604 -0.11348539 0.07196349 0.043196283
000120 b2 ca 15 bd 34 eb a8 3d 23 cc 28 be 6d e1 5b 3c
       -0.03657026 0.082479864 -0.16484122 0.013420445
000130 54 4d d7 3d c3 45 31 3d 1b 37 2c bd cc c7 c7 bd
       0.10512796 0.04327942 -0.04204474 -0.09754905
000140 d3 d7 a7 bd 8b b5 40 bd 59 18 84 bc 44 9b 9b bd
       -0.08195462 -0.047048133 -0.016124891 -0.07597974
000150 99 fd 84 3d 59 5f c9 b9 83 f1 46 bd 65 c7 21 3d
       0.064936824 -0.00038408747 -0.048570167 0.039496798
000160 a7 a1 56 3c 4a e7 44 3d 9e 5a 3b 3d 89 98 74 bc
       0.013100064 0.048072137 0.045740716 -0.014928945
000170 1d 6f 31 3d 3f 76 09 bd cb 49 9d 3d f7 5c e0 bd
       0.043318857 -0.033560034 0.076800905 -0.10955232
000180 a3 c1 31 3d 38 3c 0c 3e 04 c4 0c bd e9 4a 0a 3c
       0.043397557 0.13694847 -0.034366623 0.008440712
000190 af c9 8a bd df b1 df 3d 49 36 53 bc b4 82 8d 3d
       -0.06776749 0.10922598 -0.012891361 0.06909695
0001a0 fb a8 c2 3c de 83 a4 3d e7 9b 30 bd 14 4f a7 bc
       0.023762217 0.08032964 -0.04311743 -0.02042345
0001b0 28 b0 94 bd 49 5d a0 3d cc e3 06 3e 33 8a ca 39
       -0.07260162 0.07830293 0.13172835 0.0003863141
0001c0 91 a2 1b 3d 12 be da 3d 20 ca 04 3d b8 1b 3a 3d
       0.037996832 0.10680784 0.032419324 0.04543659
0001d0 0f a8 5c bd 1c 78 a6 3c c7 d9 1e be 14 0b 76 3c
       -0.05387121 0.020320944 -0.15512763 0.01501729
0001e0 f6 82 56 bd 92 6b 02 be dd 33 9f bd 25 fe a3 3d
       -0.052370988 -0.12736347 -0.07773564 0.080074586
0001f0 11 31 29 3e cc bb 9e 3d c3 cd 80 3b 46 8d 3c 3d
       0.16522624 0.07750663 0.0039307787 0.046033166
000200 16 79 db 3b 43 ef 6f bd cb 41 43 bd 03 bc 70 3d
       0.006697784 -0.058577787 -0.047670167 0.058773052
000210 19 82 7e bd da 58 af bc 50 f6 68 bb 4d c6 8a 3c
       -0.06213579 -0.021404672 -0.0035547204 0.01694026
000220 01 b1 11 3c 0a c4 99 bd a2 2e 22 bd 71 93 4d 3d
       0.008892299 -0.075080946 -0.039595254 0.05018944
000230 4f e3 9b 3c b9 8c ae bd f4 04 b0 3d cb 42 10 bd
       0.019029288 -0.085229345 0.08594695 -0.03521995
000240 66 29 0e be 8e 62 34 3c dd 5b 2a bd ca 50 3d 3a
       -0.1388298 0.011009825 -0.041591514 0.00072218163
000250 57 85 f3 3c 24 ee f4 3c 1e 29 d1 bd d4 83 1c be
       0.029726667 0.02989871 -0.102129206 -0.15284663
000260 47 85 97 3c eb 86 68 bd c0 a6 8d bb 9f 9f 12 3b
       0.018496169 -0.056769293 -0.0043228567 0.0022372974
000270 d8 f9 50 bc 56 51 92 bd 15 c1 34 bc 00 1d dd 3c
       -0.01275488 -0.0714442 -0.0110323625 0.026991367
000280 bc 89 59 bc 58 16 85 bd 67 26 40 3d b5 a4 b0 3a
       -0.013277467 -0.06498402 0.046911623 0.0013476821
000290 98 48 31 bc 9c 90 f2 3c ba 17 bb bc 0d 65 4a 3d
       -0.01082053 0.02960997 -0.022838462 0.049412776
0002a0 85 36 2c bd 3f 44 8e 3d 87 81 3b bd d6 d7 ed ba
       -0.04204418 0.06946611 -0.045777824 -0.0018145989
0002b0 7e 4f e9 bc 66 6b 8e bd 0b 5a 2c be b6 17 22 bc
       -0.028480288 -0.069540784 -0.16831224 -0.009893348
0002c0 91 b3 94 bd 8b 41 d9 3b 09 69 52 3d a6 c3 2f bd
       -0.07260812 0.006630128 0.0513697 -0.042911194
0002d0 ef a8 9e bd 91 dd 14 bc 44 c8 8e 3d 6d ea f7 bd
       -0.07747065 -0.009086029 0.069717914 -0.1210526
0002e0 fa 61 70 3d c3 9b 93 3c 28 99 a8 bd e3 a9 a0 3c
       0.058687188 0.018018609 -0.08232337 0.019612258
0002f0 59 40 8b 3d 80 cb 6d 3d 06 e1 83 bd cb 0b 9a 3b
       0.06799383 0.0580554 -0.06439404 0.004701113
000300 9d 36 ff ba 15 4f 97 ba 2e 99 d2 bb a4 2a c3 bc
       -0.0019471232 -0.0011543954 -0.006426952 -0.023824044
000310 af b8 a6 3d 12 36 8e bd 31 73 04 be 1e 63 04 3d
       0.08140694 -0.06943907 -0.12934567 0.032321088
000320 8c 8e f3 bd 03 51 03 b9 62 f5 f5 3a 0c cf 48 3c
       -0.11892423 -0.00012523313 0.0018765146 0.012256395
000330 43 91 2a 3c 40 6b 4c 3d fb d4 88 3d 19 8a a1 bd
       0.01041061 0.04990697 0.06681248 -0.07887668
000340 04 07 76 bd 8c dd 98 bd c4 aa a3 bc 69 dd 73 3d
       -0.060065284 -0.07464132 -0.019978888 0.059537325
000350 2a 66 3d bd e6 d3 c6 3d 86 a5 a6 3d a9 40 a3 bc
       -0.04624001 0.09708385 0.0813704 -0.019928293
000360 42 f3 ff 3b 5d 96 67 3d b0 f2 d2 ba 1a 9d 7d 3a
       0.007810981 0.056539882 -0.0016094055 0.0009674594
000370 51 8a 8f bd b6 bd 13 be 47 b6 1a 3d 63 f2 b9 3c
       -0.07008804 -0.14427838 0.03777149 0.022698587
000380 bd 8d 98 bd 3b 5b 7e 3d 1e e9 92 3d 61 c3 98 39
       -0.074489094 0.062098723 0.0717337 0.00029137268
000390 6a 8b 7e 3b c2 eb 94 bd 60 6d 81 bd 96 7d 44 3d
       0.0038840421 -0.0727153 -0.0631969 0.04797133
0003a0 d9 f5 29 3d d8 a5 a3 bd 68 f8 2a bd eb 72 be bd
       0.041494224 -0.079906166 -0.041740805 -0.092992626
0003b0 a0 1f 3d bd 9c ef 7b bd 5d 9d d4 3c 6d c9 02 bd
       -0.046172738 -0.061507806 0.025953943 -0.031930376
0003c0 e8 f6 10 be 01 c9 58 bd c7 75 a0 bd 6d b9 6f bd
       -0.14156687 -0.052926067 -0.07834964 -0.058526445
0003d0 a3 0e 2a bd b3 35 08 3c dc dd 4b 3d dc 73 f1 3b
       -0.041517865 0.008313584 0.04977213 0.007368548
0003e0 56 d4 58 bd 7d bd c0 3d b4 fb 0d 3c 62 a1 d1 bb
       -0.052936874 0.09411142 0.008665968 -0.006397412
0003f0 2a cf ee 3c ba 91 9b bd 16 38 1b bd 7b c9 49 3d
       0.029151518 -0.075961545 -0.037895285 0.049264412

fc2.bias f4 [150]
000000 c9 5d 74 bd 71 41 27 3d bd 33 1a bd f0 f1 2f 3e
       -0.059659753 0.040833894 -0.037646998 0.17182136
000010 e9 9a a0 3d f8 70 1a 3d ea 26 d6 3b 60 bf 11 be
       0.07842047 0.03770539 0.0065354006 -0.1423316
000020 e9 f1 89 3c 45 bf 3b 3d b2 47 3e bd 5c 0a 09 3e
       0.016838985 0.045836706 -0.046455093 0.13382858
000030 e7 a6 ce 3c 08 5b 59 bd 87 20 39 bd 75 14 dd 3d
       0.02522607 -0.05306533 -0.045197036 0.107949175
000040 6d 4e 16 bd f2 52 54 bd 44 d0 aa ba c9 65 a2 bc
       -0.036695886 -0.051836915 -0.0013032039 -0.019823926
000050 4b 56 4f bd 4a 8d ed 3c 1a 3f d4 bc 96 4b 89 bd
       -0.050619405 0.028998036 -0.025908995 -0.0670387
000060 12 90 80 3d 6b 8c da 3d 87 a7 16 bd 21 b4 87 3d
       0.06277479 0.10671314 -0.03678086 0.06626154
000070 64 c1 8e bd 09 f7 6d bd 46 4b 45 be 09 5b 33 3c
       -0.0697048 -0.05809692 -0.19266996 0.010946997
000080 6a 34 9e bc 55 1c 9d 3d 5c 4b 90 bc 4f f4 ad 3d
       -0.019312102 0.076714195 -0.01761406 0.08493864
000090 f8 14 ce 3d f9 d0 2b 3d 03 47 ce 3d 3a b2 b1 3d
       0.10062593 0.04194734 0.10072138 0.08676572
0000a0 f5 20 45 3d a4 cb 99 3c 59 c7 76 3d e3 f9 2a bd
       0.048127133 0.018773861 0.060248706 -0.041742217
0000b0 8d b2 b9 3c 6b b5 68 3d c1 fc d9 3d 12 af fe 3c
       0.022668147 0.05681364 0.10643912 0.03108934
0000c0 1d f9 81 3d 9c 40 c0 3d dc aa 23 be 49 a7 60 3d
       0.06346343 0.09387323 -0.15983146 0.054847036
0000d0 22 f6 9a 3d fd 66 81 3d d2 90 54 3d 85 1f 42 3c
       0.07566477 0.063184716 0.051895924 0.011848335
0000e0 ad e8 2b bd 30 22 bd bd 41 2d cc bd d5 aa 58 bd
       -0.041969944 -0.092350364 -0.09969569 -0.052897293
0000f0 01 46 a3 3d 67 c7 f3 bc 06 0c f4 3c 1b fd 19 bd
       0.079723366 -0.029758168 0.02979089 -0.037594896
000100 a1 a4 d2 3d 9d 63 57 bb 46 d0 db 3b d8 55 2f bd
       0.10285307 -0.003286577 0.0067081777 -0.042806476
000110 1d 7a de 3d 12 7e 7c 3d 9a e1 a7 3d 27 d3 8b bd
       0.10863135 0.061643668 0.08197327 -0.068273835
000120 4c 69 c6 bc 09 33 ee 3d f2 17 a0 bd c3 0d 10 3e
       -0.024220131 0.11630828 -0.07817067 0.1406775
000130 55 1c 28 bd a6 09 82 3c 80 2e e9 bc 8f 11 02 be
       -0.041042645 0.015873741 -0.028464556 -0.1270201
000140 8c f6 59 3d df a6 34 bb 62 23 56 3b 62 46 6b bd
       0.05321364 -0.0027565283 0.0032674898 -0.05744017
000150 5f bd db 3d 8c cf e6 bd 3c 18 c8 bd 78 d2 e6 bd
       0.10729479 -0.11270055 -0.09770247 -0.112706125
000160 75 35 3a 3d e4 9f e1 3d fc 0d d0 3d b9 0a eb bc
       0.045461137 0.11016825 0.10158917 -0.028691636
000170 fe 3d 79 3b ba 88 fc bb 8d d3 a5 bc 75 98 e8 bc
       0.0038031335 -0.0077067288 -0.020242477 -0.02839301
000180 50 5f d0 3d 5e f6 02 3e b3 64 94 bd dd 23 a5 bd
       0.101744294 0.12789294 -0.07245769 -0.08063481
000190 40 6f 8a 3d a8 fe f9 bd 7c 66 82 bd 4c 35 89 3d
       0.067595005 -0.12206775 -0.063672036 0.06699619
0001a0 36 d5 ef 3c 40 51 31 3c d7 99 31 3d 10 f7 b8 3c
       0.029276472 0.010822594 0.043359604 0.022578746
0001b0 b1 67 09 3d 5f 97 f0 3c 0e b9 5f 3d a5 9a 58 bd
       0.033546153 0.029369054 0.05461984 -0.052881856
0001c0 be d0 69 bd df 6c fa 3d 8c ed 8d 38 da 27 45 3d
       -0.057083838 0.12227797 6.7676505e-05 0.04813371
0001d0 36 6b 4c bd 72 db 3e bc 77 dd 89 bc 15 85 31 3d
       -0.04990693 -0.0116489995 -0.016829235 0.043339808
0001e0 4b 1b ce bc 59 ca 25 bd 11 d2 bc bd bf 3b 5f bd
       -0.025159499 -0.040476177 -0.092197545 -0.054500338
0001f0 0f 0d 4e 3d c7 4c e0 3d 84 00 4b bc 8f 3d 88 bc
       0.050305422 0.10952144 -0.01239026 -0.016630916
000200 6f de 3e be 02 b4 c2 bd e2 32 87 bb 8d f9 b8 bd
       -0.18639539 -0.0950699 -0.0041259388 -0.09031973
000210 76 b3 8c 3d 5f 7e b8 3d ee 3e 92 bd 13 02 42 bc
       0.06870167 0.090084784 -0.07140909 -0.011841315
000220 fe 49 23 bd 27 a0 a1 3d 2b d2 c1 bd 03 a0 c1 3c
       -0.039865486 0.07891875 -0.094639145 0.02363587
000230 ce cf 04 3d ea 14 1d bd 58 f6 eb bd bf da 4b 3d
       0.03242474 -0.038350023 -0.11521596 0.04976916
000240 3c 9a 16 3d 70 bf e8 bc 8c 77 07 be a4 e9 b6 3c
       0.036768183 -0.028411597 -0.13229197 0.022328205
000250 ae b3 a2 3d 63 f6 97 3d
       0.079444274 0.074200414

fc3.weight f4 [1, 150]
000000 6c 72 83 bd f7 21 d3 bc ff eb d9 3c 79 c1 92 3c
       -0.064183086 -0.025773032 0.02660179 0.01791452
000010 59 29 8c 3c dd 9d d4 3c 70 03 e5 bc d1 7f 68 bc
       0.01710956 0.025954181 -0.02795574 -0.01419063
000020 be 87 7a bd 6b f3 c9 3c c1 95 7b bc 5f 3b 5d 3c
       -0.06116461 0.024652204 -0.015355528 0.013502925
000030 74 04 43 3d 05 4f 6e bd 9d 19 8b bd 07 e4 23 3c
       0.04761167 -0.058180828 -0.06791995 0.010003096
000040 50 7e 8e 3c ed 3a 2f 3d cb 48 5e be 30 03 34 bc
       0.017394215 0.042780805 -0.21707456 -0.010987088
000050 b9 2a 97 bc 29 ed 4a bd fc 5f 1f 3d f9 cc 84 bc
       -0.018452989 -0.04954258 0.038909897 -0.01621102
000060 47 2a db 3c 26 dd 54 3c 1c 91 68 bd 5f bc 85 3c
       0.026753558 0.012992179 -0.056779012 0.016325174
000070 84 90 03 bc 9a 15 27 bb dc eb 14 bd d1 d2 3b 3d
       -0.008030061 -0.0025495053 -0.036357746 0.045855347
000080 e0 05 a1 3c e3 b7 7f bd e4 f3 78 3d 75 48 52 3c
       0.019656122 -0.062431227 0.060779467 0.012834658
000090 14 68 eb 3c fd 15 d6 3b 05 5f ae 3c 4a 6a db 3c
       0.028736152 0.006533383 0.021285543 0.026784081
0000a0 e8 4d dd 3c e3 c3 49 3c d0 45 52 3c d3 5d a6 bd
       0.027014688 0.012314769 0.012834027 -0.08123364
0000b0 4d 03 70 3c 9f bd 98 3c 0a 20 32 3c 5c cf 23 3d
       0.0146492245 0.018645106 0.0108718965 0.039992675
0000c0 6a 52 37 3c df f6 17 3c d1 f4 5d bd 4a 79 5f 3c
       0.011189083 0.009275167 -0.054188553 0.013639757
0000d0 0e 78 e9 bd e2 89 83 bc fa a5 90 3c d9 14 f8 3c
       -0.11399852 -0.016056959 0.017657269 0.030283378
0000e0 ab d1 b9 bc f3 0e ad bd 8f 6b f5 bb 57 fe 90 3d
       -0.022682985 -0.08450117 -0.0074896286 0.070797615
0000f0 2c f1 38 3d 1a b9 86 bc 2a 1d de bc 76 6d 33 bd
       0.045151874 -0.016445685 -0.027113516 -0.043805562
000100 36 ab 4b 3c 6f da a5 3c 59 b3 b9 3c cf f0 ef 3d
       0.012430957 0.020245759 0.022668527 0.117158525
000110 e2 94 dc 3c c5 95 c4 3c 19 fe 9a 3c a1 90 24 bc
       0.026926462 0.023997197 0.018919991 -0.010044248
000120 15 b8 44 3d d2 50 f1 3b 42 f6 8b bc 73 fb 81 3c
       0.048027117 0.007364371 -0.017085198 0.01586697
000130 1f c3 8a 3c 80 e5 4e 3d 1c 0a 57 3c 6e 66 f7 bc
       0.016938744 0.050511837 0.013124969 -0.03020021
000140 8a 36 5d 3c e3 f1 93 3c 3a fe ca 3c 69 9c 7f bc
       0.013501773 0.018059677 0.024779428 -0.015601256
000150 c8 84 7d bd 43 7b 93 bd ce 0a f3 3c 4b ef 90 bd
       -0.06189421 -0.07201245 0.029668238 -0.070768915
000160 ab d7 6b 3c 89 fe 23 3c 97 92 b2 3c 31 29 dc bc
       0.014394681 0.010009416 0.021798415 -0.02687511
000170 f7 da 95 3c 5a be 25 3d 85 4d 14 3d e6 e3 93 3d
       0.018292887 0.040464737 0.03620674 0.072212026
000180 60 ad bb 3c 8c f3 d1 3c 06 b3 b5 bc 3d 9d 00 bc
       0.02290982 0.025628828 -0.022180092 -0.0078499885
000190 49 8b 1b 3b 27 84 25 bd a9 9d 0a bd 04 b5 89 3d
       0.0023734143 -0.040409233 -0.033841763 0.06723979
0001a0 36 8b a5 3d f5 cd 15 bd 5b 74 ab 3c d1 ed 9e 3c
       0.08083193 -0.03657337 0.020929506 0.01940051
0001b0 4e 7f 46 bd 14 20 8e 3c 80 66 e4 3c 83 ad 9c bd
       -0.04846125 0.01734928 0.027880907 -0.07650282
0001c0 3f eb 8e bd 6e 18 3a 3c bf d0 ba 3d 59 a2 5d 3c
       -0.069784634 0.011358364 0.091218464 0.013527476
0001d0 00 75 53 3c 57 48 56 3d 2b 6b 96 3d 82 3f 26 3c
       0.012906313 0.052315082 0.073446594 0.010146977
0001e0 2b f9 8b 3c 34 c5 b6 bd 06 71 1c bd 44 6a 80 bc
       0.017086586 -0.08924332 -0.038193725 -0.015675671
0001f0 ba d5 6d 3d 7b 76 24 3d 78 fe 97 bc 8b 7b 48 3c
       0.058065154 0.040152054 -0.018553957 0.012236486
000200 75 81 e5 bc 1a a8 3a bd 3c c7 19 3c 28 b9 2c bc
       -0.028015831 -0.04557047 0.00938588 -0.010542192
000210 3a 43 a2 3c b7 74 8a 3d e5 10 45 bd 98 87 a6 bd
       0.019807447 0.06760543 -0.048111815 -0.08131331
000220 58 bc a5 3c 51 05 6e 3c 80 0c 77 bc ec 24 f2 3c
       0.02023141 0.014527635 -0.015078664 0.029558621
000230 11 c9 98 3c 8b 41 d1 3c 9a 91 1b bd ad d3 4c 3d
       0.018650563 0.025543949 -0.037980653 0.050006557
000240 e0 2c bf 3d f6 c6 02 3d e4 9a bf bd 3a e8 94 bd
       0.09334731 0.031928025 -0.09355715 -0.07270856
000250 ca 0d 57 3c 12 28 a5 3c
       0.013125846 0.020160709
